simple_example1.onnx (onnx, 851 bytes, 6 tensors)

fc1.bias f4 [2]
0	0xbb265ba0	-0.0025384203
1	0x3cf05c9c	0.029341035

fc2.bias f4 [2]
0	0xbe32a389	-0.17445196
1	0x3f2c841c	0.6738908

fc3.bias f4 [2]
0	0x3d0d171a	0.03444586
1	0x3d8debda	0.06929751

onnx::MatMul_18 f4 [2, 2]
0	0x3e4ab35d	0.19794984
1	0x3e792880	0.24331856
2	0x3f308418	0.6895156
3	0x3f11a92e	0.5689877

onnx::MatMul_19 f4 [2, 2]
0	0x3eb96a88	0.3621409
1	0xbc42c329	-0.01188735
2	0x3eba5761	0.3639479
3	0x3f0b869a	0.5450226

onnx::MatMul_20 f4 [2, 2]
0	0xbe7995e1	-0.2437358
1	0x3f187787	0.59557384
2	0x3f31b6c6	0.69419515
3	0x3f1a7569	0.60335404
