simple_example1.pt (torch, 3287 bytes, 6 tensors)

weight f4 [2, 2]
000000 5d b3 4a 3e 18 84 30 3f 80 28 79 3e 2e a9 11 3f
       0.19794984 0.6895156 0.24331856 0.5689877

bias f4 [2]
000000 a0 5b 26 bb 9c 5c f0 3c
       -0.0025384203 0.029341035

weight f4 [2, 2]
000000 88 6a b9 3e 61 57 ba 3e 29 c3 42 bc 9a 86 0b 3f
       0.3621409 0.3639479 -0.01188735 0.5450226

bias f4 [2]
000000 89 a3 32 be 1c 84 2c 3f
       -0.17445196 0.6738908

weight f4 [2, 2]
000000 e1 95 79 be c6 b6 31 3f 87 77 18 3f 69 75 1a 3f
       -0.2437358 0.69419515 0.59557384 0.60335404

bias f4 [2]
000000 1a 17 0d 3d da eb 8d 3d
       0.03444586 0.06929751
