MNIST_LSTM_GRU/mnist/MNIST_GRUnet.onnx (onnx, 75044 bytes, 6 tensors)

gru_W f4 [1, 45, 392]
-3.9443883e-05 -0.002200261 -0.0076534976 -0.011476624 -0.0798848 -0.08867113 -0.015116286 0.055214196
-0.042075906 -0.17911457 -0.048439637 -0.23114513 -0.11112213 -0.16209933 -0.2230195 -0.05905207
0.09734966 0.050858304 0.029428117 -0.09252862 -0.08006319 -0.08602113 -0.021158554 0.09506001
0.04639265 0.011691274 0.03215966 -6.2017067e-12 -8.960467e-06 -0.008132581 -0.02192285 -0.055604413
-0.09994915 -0.15195933 -0.0984755 -0.08230765 0.064337544 0.115336046 -0.018330628 0.039550375
-0.14507309 -0.23789667 -0.21907826 0.03076033 0.11948784 0.05748914 -0.027769249 -0.014943254
-0.19673875 -0.12784941 -0.13133654 0.040321037 0.02585235 0.04759228 0.013243666 0.00010234649
9.129873e-08 -0.0019626634 -0.0057608588 -0.0011272155 0.0011066532 -0.093049616 -0.13246289 -0.09790663
-0.08622209 -0.11523375 0.013826105 -0.083769254 -0.24314933 -0.19823132 -0.11880571 0.06464872
0.06433674 -0.07141125 -0.07646201 -0.10936703 -0.15026121 -0.251767 -0.11510612 0.011425528
-0.002019041 0.13648422 0.04861355 0.00021243111 1.12674e-40 2.2920901e-07 -0.0060148533 0.035573777
0.05896256 0.06563205 0.019201443 -0.040159132 -0.01000264 -0.0772178 0.028689768 0.09091658
0.2013319 0.1534603 0.08324227 -0.0703338 0.023797708 -0.017731652 -0.033464395 0.026326483
0.06466071 -0.07094278 0.07641009 0.120805 0.032054342 0.07640368 0.019670941 0.004789143
-2.267267e-16 1.615614e-14 -0.015314497 -0.026263205 0.14327271 0.29922843 0.09603372 0.024235772
0.009406133 0.016740385 0.13556385 0.2602597 0.31805554 0.20429298 0.1553728 -0.08545892
-0.13419335 0.11569349 0.17004769 0.29473585 0.2445417 0.031307604 0.21621077 0.20052332
0.10699054 0.07164181 -0.006271567 0.0021180275 1.4385025e-20 -0.0015419022 0.039477278 -0.05092526
0.19384895 0.30861828 0.3234576 0.22752336 0.1861847 0.27381995 0.23381136 0.2290615
0.2529116 0.18204646 0.095476836 -0.13838138 -0.27952477 -0.026705982 0.09335025 0.28933728
0.116126694 -0.06984456 0.14685771 0.15873493 0.0016522447 0.024592634 -0.0021361657 0.00020011613
9.5435e-41 -0.0007476757 0.044627424 -0.056748647 0.14287987 0.3314374 0.26576877 0.23912892
0.3040438 0.17033404 0.087982096 0.06592398 0.028025873 0.040962923 -0.10905138 -0.36197314
-0.25753167 -0.15600581 -0.041838534 0.022053042 -0.02255624 -0.20337173 0.094891 0.09554141
-0.0038190994 -0.008740416 0.009611751 0.00017891514 1.2211956e-06 -0.00076152064 -0.014547555 -0.08097621
0.0814951 0.2801436 0.22904706 0.19008742 0.2439541 0.25457284 -0.016835498 -0.06835644
-0.0755263 0.032400265 -0.21800353 -0.31531778 -0.30962986 -0.15060434 -0.085965805 -0.08457874
0.04800458 0.06780558 0.118444264 0.2248163 0.087987036 -0.0022333504 0.015775518 0.0013468078
-8.1738304e-05 -0.0049650795 -0.01205604 -0.057763267 -0.002354406 0.045173764 0.10163871 0.12553775
0.08072722 0.14696093 -0.019360226 -0.087418795 -0.08212572 -0.08475562 -0.16447404 -0.25164023
-0.015164418 -0.06717834 -0.100137055 -0.019046217 0.015937576 0.19028941 0.22934724 0.24625373
0.0680258 0.03416719 0.011050207 0.00062249374 1.0324504e-06 -0.0054722345 -0.022803288 -0.04324116
00000000: 8c70 25b8 4132 10bb 31ca fabb 7308 3cbc
00000010: a49a a3bd 3699 b5bd 4daa 77bc 4828 623d
00000020: c957 2cbd cf69 37be a468 46bd 4fb1 6cbe
00000030: 0094 e3bd 5efd 25be 395f 64be 95e0 71bd
00000040: 425f c73d cc50 503d 3c13 f13c a57f bdbd
00000050: 2bf8 a3bd d92b b0bd b454 adbc d3ae c23d
00000060: 3806 3e3d c28c 3f3c d9b9 033d 0234 daac
00000070: ea54 16b7 843e 05bc 8c97 b3bc 74c1 63bd
00000080: 24b2 ccbd 3a9b 1bbe 86ad c9bd ea90 a8bd
00000090: 67c3 833d 4e35 ec3d 1d2a 96bc 93ff 213d
000000a0: 0a8e 14be 2f9b 73be 0d56 60be 16fd fb3c
000000b0: 0ab6 f43d bc79 6b3d 567c e3bc 8dd4 74bc
000000c0: e275 49be f5ea 02be 167d 06be ac27 253d
000000d0: 4fc8 d33c 1ff0 423d f6fb 583c daa2 d638
000000e0: 0210 c433 07a0 00bb 96c5 bcbb 13bf 93ba
000000f0: 1f0d 913a cc90 bebd 5aa4 07be 4583 c8bd
00000100: 3595 b0bd acff ebbd e386 623c 378f abbd
00000110: 23fc 78be 27fd 4abe 6850 f3bd 8c66 843d
00000120: fbc2 833d 1040 92bd 1d98 9cbd d2fb dfbd
00000130: 13de 19be 9be7 80be c2bc ebbd 2332 3b3c
00000140: e351 04bb 85c2 0b3e 001f 473d 0bc0 5e39
00000150: 173a 0100 7e1c 7634 3f18 c5bb cfb5 113d
00000160: ba82 713d 196a 863d 584c 9d3c e77d 24bd
00000170: 1de2 23bc 5e24 9ebd ce06 eb3c 7932 ba3d
00000180: f329 4e3e b224 1d3e ec7a aa3d 2b0b 90bd
00000190: 69f3 c23c f841 91bc f611 09bd a3aa d73c
000001a0: d66c 843d 734a 91bd e57c 9c3d 9d68 f73d
000001b0: 6a4b 033d 8879 9c3d f424 a13c 3eee 9c3b
000001c0: f5b2 82a5 8685 9128 a8e9 7abc ef25 d7bc
000001d0: 15b6 123e 7834 993e 54ad c43d 198a c63c
000001e0: 2e1c 1a3c 2223 893c 40d1 0a3e c240 853e
000001f0: 2dd8 a23e 2e32 513e 0c1a 1f3e 1605 afbd
00000200: fb69 09be b5f0 ec3d fb20 2e3e 9ee7 963e
00000210: 2469 7a3e 673c 003d 5b66 5d3e fc55 4d3e
00000220: db1d db3d f1b8 923d b881 cdbb 9bce 0a3b
00000230: dbdc 871e a719 caba edb2 213d 0197 50bd
00000240: 5780 463e 3703 9e3e 3c9c a53e e2fb 683e
00000250: 34a7 3e3e 2132 8c3e 3f6c 6f3e 198f 6a3e
00000260: a17d 813e 636a 3a3e 5c89 c33d d9b3 0dbe
00000270: df1d 8fbe 81c6 dabc 6a2e bf3d 0424 943e
00000280: d5d3 ed3d aa0a 8fbd de61 163e 698b 223e
00000290: 2290 d83a 7e76 c93c eafe 0bbb 44d6 5139
000002a0: 090a 0100 abff 43ba 3fcb 363d 4571 68bd
000002b0: 1a4f 123e 2ab2 a93e d812 883e 36de 743e
000002c0: a1ab 9b3e 0c6c 2e3e f52f b43d 2703 873d
000002d0: 8496 e53c bdc8 273d 5456 dfbd 8b54 b9be
000002e0: 31db 83be fdbf 1fbe e25e 2bbd 95a8 b43c
000002f0: ddc7 b8bc ae40 50be 3656 c23d 37ab c33d
00000300: db49 7abb f633 0fbc 9b7a 1d3c 2b9b 3b39
00000310: f6e7 a335 c9a0 47ba de58 6ebc dbd6 a5bd
00000320: e7e6 a63d fb6e 8f3e 508b 6a3e 47a6 423e
00000330: 1bcf 793e 5f57 823e 99ea 89bc 76fe 8bbd
00000340: 88ad 9abd 24b6 043d 513c 5fbe 5571 a1be
00000350: ce87 9ebe 0638 1abe d70e b0bd 9e37 adbd
00000360: 73a0 443d a7dd 8a3d e892 f23d 3f36 663e
00000370: 8c32 b43d 675d 12bb a93b 813c 5f87 b03a
00000380: eb6a abb8 1bb2 a2bb b286 45bc 2d99 6cbd
00000390: 614c 1abb 2008 393d f527 d03d f88c 003e
000003a0: 5054 a53d ed7c 163e 5699 9ebc a008 b3bd
000003b0: 8831 a8bd 5b94 adbd e26b 28be fdd6 80be
000003c0: 2e74 78bc cc94 89bd a814 cdbd d006 9cbc
000003d0: 858f 823c 3adb 423e 01da 6a3e f029 7c3e
000003e0: 1c51 8b3d e5f2 0b3d ed0b 353c d92e 233a
000003f0: ba92 8a35 6e50 b3bb f6cd babc a51d 31bd

gru_R f4 [1, 45, 15]
0.22167633 0.31448212 0.28276095 0.11004779 0.051748376 0.13281143 0.3578407 -0.051022243
0.02254681 0.23092052 -0.29861253 0.17868502 -0.062443163 -0.2341705 -0.16584247 -0.3264175
0.23508747 -0.5109405 0.2359895 -0.25424382 0.5130101 0.49514672 0.20777333 -0.7515988
0.07123754 -0.7338283 -0.43213242 -0.2884875 0.25722414 0.23397171 -0.15770702 0.25991738
-0.3024977 -0.28116864 -0.49410757 -0.3818972 0.3223031 0.67828363 0.23778528 -0.14653772
-0.3788285 -0.014477919 -0.024450684 -0.34481353 0.041059583 -0.3098774 0.30390716 0.16080861
0.020179152 -0.13428743 0.008783002 -0.4614302 -0.5369727 0.14422639 -0.1764423 -0.90036345
0.41086 0.07731204 -0.24858247 -0.033190265 0.11211754 -0.49972603 0.0019614403 0.6566351
-0.10444079 0.52505165 0.2761604 -0.1305611 -0.13920055 0.10761477 0.8127943 -0.1748424
-0.2903336 0.6291217 0.41838023 -0.5114052 0.2029774 -0.5753815 0.39495775 0.011338441
0.43537053 -0.46870863 -0.17171183 -0.19088581 0.026609262 0.052245297 -0.29856884 0.45433578
-0.16538335 -0.15006955 -0.14369646 -0.009070993 0.39982852 -0.0076497206 -0.54309696 0.27491093
-0.7240969 0.07633613 0.047045235 -0.3537047 0.110962085 -0.699406 -0.21908785 0.85557044
-0.12527595 0.29172975 0.2266678 -0.23281738 0.010767671 0.36791927 0.6004858 0.09811792
-0.43058518 -0.09179795 0.22349285 0.35462305 -0.21903783 -0.1537287 0.17316961 -0.6448935
0.12000351 -0.24039343 -0.1710737 -0.070998274 0.22154002 -0.21165603 0.18045564 0.0031282795
-0.25402102 0.2728873 0.27419156 -0.34719592 0.15814501 -0.36443287 0.07935284 -0.41316378
0.1694458 -0.56308734 -0.15007222 -0.0033863513 0.15531254 -0.47960737 -0.043569878 0.1529647
-0.5627668 -0.23155195 -0.27302223 -0.18532746 0.21743226 -0.3179743 -0.4008616 0.33090663
-0.4362295 0.6748979 1.0154337 0.47092256 -0.19121349 -0.358722 -0.044311207 0.15416043
-0.01014939 -0.31696233 -0.009496071 -0.32414538 -0.14739485 0.40330002 0.2612109 0.5643636
-0.0053768894 -0.32171598 0.22617185 -0.052364424 -0.37522113 0.6625463 -0.080204524 0.1900724
0.16356012 0.27577552 -0.08577439 0.00013312233 -0.005631535 0.04690838 -0.25552025 -0.04634406
0.31417865 -0.05910557 0.17794088 -0.019805007 0.10692706 0.17462838 0.28649667 -0.10547825
0.14538214 -0.28130138 -0.19223228 0.04001783 0.15239088 0.4833493 -0.586548 0.22675356
-0.16286741 -0.07299688 -0.21983743 -0.2910153 0.5325673 -0.41178092 -0.121977314 0.11739105
-0.062383886 -0.8437702 -0.4852266 -0.6891073 0.031227775 -0.07520924 -0.50920075 0.17377965
-0.31214702 0.79653436 0.24574837 -0.3729171 0.39421138 -0.07456648 -0.06789696 0.6904908
0.57711214 0.9054223 -0.37953252 0.88836205 0.52275383 -0.17418267 0.15786733 -0.2803447
-1.0804335 0.5701167 0.27434766 0.46291196 -0.06714541 0.13451648 0.46696487 0.2551778
-0.061903313 0.033168413 -0.22740157 -0.046517372 -0.031353433 0.32585624 0.13004526 -0.32286215
-0.4686902 0.05327668 -0.3296 -0.3484483 -0.1973211 0.003306494 -0.2951998 -0.077166505
00000000: 1fff 623e cd03 a13e 0bc6 903e bc60 e13d
00000010: 1bf6 533d b8ff 073e e536 b73e b3fc 50bd
00000020: 16b4 b83c 6e76 6c3e bee3 98be 35f9 363e
00000030: 67c4 7fbd 64ca 6fbe 9cd2 29be 3220 a7be
00000040: c5ba 703e ffcc 02bf 3ba7 713e 3f2c 82be
00000050: a154 033f df83 fd3e 88c2 543e c768 40bf
00000060: fde4 913d 2cdc 3bbf 7640 ddbe a2b4 93be
00000070: e2b2 833e 4896 6f3e f37d 21be e413 853e
00000080: fbe0 9abe 56f5 8fbe abfb fcbe 0888 c3be
00000090: e904 a53e ffa3 2d3f fc7d 733e fc0d 16be
000000a0: cff5 c1be cb34 6dbc cd4c c8bc 668b b0be
000000b0: 182e 283d 40a8 9ebe b899 9b3e 03ab 243e
000000c0: c04e a53c a582 09be 95e6 0f3c 9440 ecbe
000000d0: 0b77 09bf 15b0 133e 4aad 34be 387e 66bf
000000e0: 3e5c d23e c655 9e3d 678c 7ebe 84f2 07bd
000000f0: e19d e53d 17dc ffbe 828b 003b 3d19 283f
00000100: 0ee5 d5bd c969 063f e564 8d3e cfb1 05be
00000110: 978a 0ebe 2265 dc3d 4a13 503f e309 33be
00000120: 9ba6 94be 1f0e 213f ef35 d63e 74eb 02bf
00000130: 4fd9 4f3e 344c 13bf e737 ca3e dec4 393c
00000140: e3e8 de3e 94fa efbe 3ad5 2fbe 9277 43be
00000150: abfb d93c 2aff 553d 04de 98be b39e e83e
00000160: 415a 29be d5ab 19be 2a25 13be 819e 14bc
00000170: 53b6 cc3e 82aa fabb 6708 0bbf 20c1 8c3e
00000180: 6a5e 39bf 1e56 9c3d 81b2 403d c818 b5be
00000190: 1740 e33d 460c 33bf 9158 60be aa06 5b3f
000001a0: 5748 00be 9a5d 953e 9b1b 683e ae67 6ebe
000001b0: e36a 303c ea5f bc3e 70b9 193f 0cf2 c83d
000001c0: a975 dcbe 9000 bcbd 4fdb 643e 2791 b53e
000001d0: 744b 60be 0e6b 1dbe 6053 313e be17 25bf
000001e0: 66c4 f53d b229 76be f22d 2fbe 8b67 91bd
000001f0: 63db 623e 5cbc 58be 5dc9 383e d203 4d3b
00000200: 0b0f 82be e2b7 8b3e d662 8c3e aac3 b1be
00000210: c4f0 213e f296 babe be83 a23d 348a d3be
00000220: 3383 2d3e 7e26 10bf 88ac 19be 8ced 5dbb
00000230: 400a 1f3e 198f f5be 5476 32bd c7a2 1c3e
00000240: 7c11 10bf f41b 6dbe 92c9 8bbe 7bc6 3dbe
00000250: 90a6 5e3e 87cd a2be bb3d cdbe 986c a93e
00000260: 7959 dfbe 1cc6 2c3f bbf9 813f c31c f13e
00000270: 78cd 43be 69aa b7be ab7f 35bd 3bdc 1d3e
00000280: a149 26bc e348 a2be 6995 1bbc 62f6 a5be
00000290: adee 16be 577d ce3e 6fbd 853e 227a 103f
000002a0: 9e30 b0bb f5b7 a4be 9899 673e 147c 56bd
000002b0: fc1c c0be a29c 293f 4542 a4bd 57a2 423e
000002c0: 4e7c 273e 7332 8d3e 7caa afbd c196 0b39
000002d0: bd88 b8bb 0023 403d 8dd3 82be 45d3 3dbd
000002e0: 06dc a03e af18 72bd 2236 363e 1c3e a2bc
000002f0: 93fc da3d c8d1 323e b1af 923e fb04 d8bd
00000300: 0edf 143e bc06 90be 8ad8 44be bce9 233d
00000310: 5b0c 1c3e 8f79 f73e 0228 16bf 1632 683e
00000320: b7c6 26be 637f 95bd 101d 61be f5ff 94be
00000330: 5556 083f f3d4 d2be 3ecf f9bd b86a f03d
00000340: 3f86 7fbd 5301 58bf 9f6f f8be 5669 30bf
00000350: 64d1 ff3c 4d07 9abd fb5a 02bf 4bf3 313e
00000360: bcd1 9fbe ade9 4b3f 76a5 7b3e fdee bebe
00000370: 13d6 c93e 50b6 98bd 900d 8bbd 01c4 303f
00000380: 9fbd 133f c1c9 673f 1652 c2be b26b 633f
00000390: 32d3 053f f15c 32be f9a7 213e 5789 8fbe
000003a0: a54b 8abf 2bf3 113f 4c77 8c3e cc02 ed3e
000003b0: 8883 89bd b0be 093e 0516 ef3e aaa6 823e
000003c0: 548e 7dbd 9adb 073d f5db 68be 0089 3ebd
000003d0: 756c 00bd a1d6 a63e 962a 053e 304e a5be
000003e0: 29f8 efbe a638 5a3d 55c1 a8be d167 b2be
000003f0: 8b0e 4abe c4b1 583b 6e24 97be 7909 9ebd

gru_B f4 [1, 90]
-0.27911246 -0.31120887 -0.17602614 -0.31128344 -0.20345521 -0.03985275 0.20675993 -0.5069988
-0.46112788 -0.0047378824 -0.24564968 -0.18335676 -0.3742239 -0.35019672 -0.058423135 -0.076583795
0.075463 0.17568132 0.19720675 0.4685423 -0.11773465 0.36943746 -0.016916519 0.12633844
-0.017472453 0.15509863 0.24955133 0.014664598 0.05993892 -0.06710176 -0.1852523 0.008457762
-0.21506603 -0.1306641 0.11799521 0.2762319 -0.042085413 -0.13177617 -0.1656001 0.022118246
0.19420047 -0.13483374 0.08495592 -0.14815998 -0.054037422 0.0 0.0 0.0
0.0 0.0 0.0 0.0 0.0 0.0 0.0 0.0
0.0 0.0 0.0 0.0 0.0 0.0 0.0 0.0
0.0 0.0 0.0 0.0 0.0 0.0 0.0 0.0
0.0 0.0 0.0 0.0 0.0 0.0 0.0 0.0
0.0 0.0 0.0 0.0 0.0 0.0 0.0 0.0
0.0 0.0
00000000: d4e7 8ebe c556 9fbe 3240 34be 8b60 9fbe
00000010: 9056 50be a33c 23bd e0b8 533e acca 01bf
00000020: f418 ecbe 3d40 9bbb 978b 7bbe e0c1 3bbe
00000030: 469a bfbe fc4c b3be 194d 6fbd f7d7 9cbd
00000040: 588c 9a3d cee5 333e 91f0 493e c7e4 ef3e
00000050: dd1e f1bd e826 bd3e 8394 8abc dd5e 013e
00000060: 6422 8fbc 2dd2 1e3e 628a 7f3e c843 703c
00000070: 8382 753d a66c 89bd c7b2 3dbe 6d92 0a3c
00000080: 453a 5cbe cfcc 05be 79a7 f13d 456e 8d3e
00000090: c161 2cbd 55f0 06be 1393 29be 5331 b53c
000000a0: 7ddc 463e db11 0abe 5ffd ad3d 40b7 17be
000000b0: 5856 5dbd 0000 0000 0000 0000 0000 0000
000000c0: 0000 0000 0000 0000 0000 0000 0000 0000
000000d0: 0000 0000 0000 0000 0000 0000 0000 0000
000000e0: 0000 0000 0000 0000 0000 0000 0000 0000
000000f0: 0000 0000 0000 0000 0000 0000 0000 0000
00000100: 0000 0000 0000 0000 0000 0000 0000 0000
00000110: 0000 0000 0000 0000 0000 0000 0000 0000
00000120: 0000 0000 0000 0000 0000 0000 0000 0000
00000130: 0000 0000 0000 0000 0000 0000 0000 0000
00000140: 0000 0000 0000 0000 0000 0000 0000 0000
00000150: 0000 0000 0000 0000 0000 0000 0000 0000
00000160: 0000 0000 0000 0000

gru_initial_h f4 [1, 1, 15]
0.0 0.0 0.0 0.0 0.0 0.0 0.0 0.0
0.0 0.0 0.0 0.0 0.0 0.0 0.0
00000000: 0000 0000 0000 0000 0000 0000 0000 0000
00000010: 0000 0000 0000 0000 0000 0000 0000 0000
00000020: 0000 0000 0000 0000 0000 0000 0000 0000
00000030: 0000 0000 0000 0000 0000 0000

fc_MatMul_W f4 [15, 10]
0.6912135 -1.0058235 0.15115392 -0.7318722 -1.4286029 0.27216223 0.83761704 -1.3726194
1.0421579 1.130675 0.5536769 -1.0559145 -1.0107764 -0.41944894 0.6572778 1.1107913
-0.8346177 0.21260795 0.97605675 -0.55955005 -1.0109006 0.3770646 -0.67172885 1.062274
-1.4600855 0.3989798 -0.83045256 0.28327534 0.529553 0.8169532 0.073554516 -0.9091368
-1.4587721 0.48047814 0.13241358 1.0337021 1.0693955 -1.1529675 0.34951413 0.0563962
0.8229808 -0.9292165 -0.34259507 -1.2573093 0.19482785 0.6731443 0.93339306 0.23639113
-0.9473155 0.78214014 0.5484455 -0.58100986 0.987452 1.0925997 -1.1784393 0.6624669
-0.8234761 1.6487823 -1.3116789 -0.9799644 -0.95486253 -0.022064643 1.2241062 0.9711748
0.88423544 -1.4460042 0.2653236 -0.96162117 1.1485077 -0.7860439 0.066234715 -1.0973929
-0.12814881 -0.14433393 1.1156801 -0.6688114 -1.1186683 1.4642922 0.9879634 1.1205249
-0.3432791 1.0786756 -1.3704687 -0.104303576 0.6883324 0.07683665 -0.49953374 -0.65150994
0.65877736 0.9124748 1.441195 0.9895655 1.1232743 -1.3339447 -0.59316427 -1.444273
0.70705444 -0.72849506 1.1677167 -1.3558679 -0.962454 0.96642727 0.36799017 -0.9396019
-0.8550789 0.040117204 1.6552777 1.2726983 -0.12676817 -1.0398942 1.2209932 -0.12066479
-0.2601841 1.1390914 -1.0851618 -1.2785945 -1.0215325 1.2732351 -0.057218034 1.4253782
-1.077195 0.95311815 -0.40524995 -1.0315806 0.39323977 -0.9581335 0.21788822 0.66826
-0.359667 0.5908461 -1.3049779 1.0383178 0.050085556 0.92793393 -1.0136373 0.86718583
-1.1329209 -0.82485217 0.69851446 -0.6930954 0.8187524 0.91189545 -1.3895504 0.6045588
1.5546716 -0.18748316 0.7771489 0.32892457 -0.8504962 0.037971936
00000000: 5ef3 303f d3be 80bf 18c8 1a3e fa5b 3bbf
00000010: 76dc b6bf d958 8b3e 126e 563f feb1 afbf
00000020: 6e65 853f f5b9 903f c5bd 0d3f 3528 87bf
00000030: 1f61 81bf 03c2 d6be 5c43 283f 692e 8e3f
00000040: 81a9 55bf e6b5 593e dbde 793f ac3e 0fbf
00000050: 3165 81bf 9c0e c13e 6cf6 2bbf 98f8 873f
00000060: 15e4 babf 1547 cc3e 8a98 54bf 7709 913e
00000070: c990 073f d823 513f c0a3 963d 30bd 68bf
00000080: 0bb9 babf 3b01 f63e 6d97 073e 5a50 843f
00000090: f4e1 883f 7094 93bf 84f3 b23e b4ff 663d
000000a0: dfae 523f 22e1 6dbf 9f68 afbe 83ef a0bf
000000b0: f480 473e 2f53 2c3f d9f2 6e3f 8410 723e
000000c0: 4583 72bf 563a 483f ed66 0c3f 10bd 14bf
000000d0: a7c9 7c3f 4fda 8b3f 19d7 96bf 6e97 293f
000000e0: 54cf 52bf 4c0b d33f 18e5 a7bf f2de 7abf
000000f0: df71 74bf e9c0 b4bc 83af 9c3f e99e 783f
00000100: 415d 623f aa16 b9bf 7fd8 873e ce2c 76bf
00000110: 4d02 933f 2c3a 49bf 11a6 873d 5f77 8cbf
00000120: 7139 03be 46cc 13be 9bce 8e3f 3937 2bbf
00000130: 8630 8fbf ed6d bb3f 2beb 7c3f 5c6d 8f3f
00000140: 47c2 afbe 0b12 8a3f 856b afbf 1d9d d5bd
00000150: 8d36 303f 895c 9d3d e3c2 ffbe 5bc9 26bf
00000160: a2a5 283f f397 693f 1479 b83f 2a54 7d3f
00000170: 74c7 8f3f b3be aabf 9dd9 17bf f0dd b8bf
00000180: 8501 353f a77e 3abf be77 953f 148d adbf
00000190: 6363 76bf c767 773f 3569 bc3e c089 70bf
000001a0: 73e6 5abf f051 243d 24e0 d33f c7e7 a23f
000001b0: 84cf 01be 411b 85bf 8149 9c3f 1a1f f7bd
000001c0: da36 85be bfcd 913f 95e6 8abf fca8 a3bf
000001d0: 94c1 82bf 5ef9 a23f 755d 6abd cb72 b63f
000001e0: 87e1 89bf 8dff 733f ec7c cfbe d50a 84bf
000001f0: b956 c93e 3d48 75bf 171e 5f3e 1613 2b3f
00000200: 4626 b8be b141 173f 8409 a7bf 99e7 843f
00000210: 8326 4d3d 148d 6d3f debe 81bf e4ff 5d3f
00000220: 8d03 91bf 8329 53bf d8d1 323f b36e 31bf
00000230: c299 513f fb71 693f cadc b1bf 5ec4 1a3f
00000240: 7bff c63f 96fb 3fbe 3bf3 463f cd68 a83e
00000250: 1eba 59bf 7688 1b3d

fc_Add_B f4 [10]
-0.5354679 0.09925112 0.23455559 -0.05578431 -0.08383842 0.23473412 -0.15281597 0.2898033
-0.11992862 -0.07477032
00000000: 6d14 09bf 2c44 cb3d 572f 703e 177e 64bd
00000010: 7ab3 abbd 245e 703e ca7b 1cbe 1961 943e
00000020: 239d f5bd 2e21 99bd
