MNIST_LSTM_GRU/mnist/MNIST_LSTM2net.onnx (onnx, 52641 bytes, 7 tensors)

lstm_W f4 [1, 60, 196]
00000000: 6a7b 77ab 534c a7b9 312c 0a3c b0c1 e9bc
00000010: e52e c0bb f075 8dbd 25d6 6c3c 42b8 f03c
00000020: 0e08 f73c dd14 99bd 2996 c2bd 064e 1fbe
00000030: 8f15 fdbd bbcd a83c d670 86bc 3bf3 dabd
00000040: 79a9 72be 68a1 68be 8f5b 9abe a348 1cbe
00000050: 6156 2bbe ae40 88be 6bd3 77be dded 9dbe
00000060: 71d5 c8bd 8f26 523d 6e0e 903d 705a d43c
00000070: 03b2 9cba fe39 21b8 1e75 f93c 2244 293d
00000080: ec50 03bd e1c3 04be 1a73 10bd a8b0 de3d
00000090: f48b 013e 7d55 003e d1d1 963c 2bba 723e
000000a0: fa7d 683e bc66 cb3e fade b33e 6342 c63d
000000b0: 0063 9bbd 19f8 30be 7d03 3ebe 41bc d3bd
000000c0: 27e2 61be 3719 cdbe 4894 26be d786 5abe
000000d0: 4571 0cbe b46b 683d 8fee 0c3d 86af c9ba
000000e0: 48f8 712b 6f2c 24ba 606a 1d3d b6a6 f43d
000000f0: ce7e 0d3b 16b0 acbd dc19 39be 4983 ef3c
00000100: c1ce 113e c59c db3d e12f 763d bbca 603e
00000110: b273 313e 9e41 9c3e 1573 ef3e caa0 ed3e
00000120: 8f63 513e fcfd 6ebd 7ebf 753b 7110 53be
00000130: d1b2 8fbe 3da6 93be 9f86 95be b8b9 0cbe
00000140: 2662 00be ce89 f53d b0b8 c83b ca0b d63c
00000150: 51c1 5bac d2b8 7238 5421 8c3c 43d1 053e
00000160: 64b6 903d 0a66 3abd 2b72 6bbe 60ce 2ebd
00000170: 706d 4dbd 12bf b83b c9df 7ebe d45f babd
00000180: 85c0 833e ec0d 0f3f de6c 4e3f 6894 233f
00000190: 7d1e 8c3e ec4a 503d 1824 dc3d 410d 293d
000001a0: ff7a 3ebe 540f 52bd 3eb7 a0bd 6030 3bbd
000001b0: 7ad2 d8bb ec12 313e 6c9a 253d f016 3cbb
000001c0: 3907 362a 0360 23b7 5c8a 8b3b a167 a13d
000001d0: 536e 37bb 076d 09bd 7838 14be b71a d6bd
000001e0: 5aca 55be de66 3bbe 124c f5bd 5d0d 1ebd
000001f0: 0078 443d 4f04 8d3e 6deb bc3e c966 b73e
00000200: 08b8 f23e d601 e43e 5b31 f63e 8f61 d13e
00000210: 478c a83e 5e25 763e d66a 673d 0568 a73d
00000220: fddc 8dbc 95b0 6c3d 80fa bf3b f8c3 e73b
00000230: 6ebe eb21 fe3d 9dbb 2e55 8d3b 310c 523d
00000240: 01bb c3bc 19eb d7bd dba8 16bd 331b 28bd
00000250: 4ae9 1bbe 9498 b8bd cd2c 16bc de0a 783d
00000260: ee78 adbd c14a 7fbc 2058 483e 6871 af3e
00000270: 9d0b 693e d1bb 003f d709 e73e 5ea8 8b3e
00000280: 735e b03d 8dd1 0d3e baee 97bd a52c 813c
00000290: 5df9 843d 3fbe 5b3d 84be 7b3a 4036 9c3b
000002a0: 904e ac2b abc4 3dbc 64aa 0f3b d5eb 3c3d
000002b0: b2d0 14bd 4626 0bbe b6f5 dfbc e80f b43b
000002c0: 7a95 a2bc 43fa 1bbe 8045 36be d128 aebe
000002d0: b0cc 81be 13ff 1bbe 3e6b 7cbd 9538 86be
000002e0: 40d9 9bbd 7c5f bd3d c730 063d 7eb0 47be
000002f0: 7732 f8be 49b9 dabe 3fee abbe 0858 93be
00000300: 6aad 0abc 0385 993d ce0c 4e3d cd61 1e3d
00000310: faa4 4f2c 0d63 2fbc 9cbd 81bc 956c 26bc
00000320: 190a 8f3d 3e82 733d c0de 0c3c 67c7 553e
00000330: a5f1 063e 0529 3b3e b120 72bc 9066 d83d
00000340: b66a adbc 470d d43b 6420 ffbd 071f 16be
00000350: 17db 28be 9ab0 943d d6ea 673d cae6 6c3d
00000360: 20cb 18bd 5809 8e3e 12dc f43d 9258 523d
00000370: 4479 153d 14f5 9bbc ee16 aa3c a8ce d73c
00000380: 6a8e cc3c b83c 87bc 0371 a2bc dfdd 003d
00000390: 72d5 78bb 4a9b b33d ff0b 473e 981c 783e
000003a0: 84b1 9f3e 58d7 be3e 983c 793e 9ce2 313e
000003b0: f9fb 8d3d 08a9 523d 2aa2 493e 3484 893d
000003c0: 2737 4a3e 3ede 803e 081e d7bd 0d4a 07be
000003d0: 382a 593d e3a1 173e 8407 2d3e 43c4 80bd
000003e0: bb9b 15be 2a8a 40be 0f4e 99bb 0584 a3b9
000003f0: 3986 82af caac d4bc 1621 c4bc e27d 093d
-8.79233e-13 -0.00031909588 0.008433388 -0.02853474 -0.0058649653 -0.069072604 0.014455353 0.029384736
0.030155208 -0.074746825 -0.09501297 -0.15557107 -0.123576276 0.020605912 -0.016411226 -0.10690924
-0.23697461 -0.22717822 -0.3014798 -0.15262084 -0.1673217 -0.26611847 -0.24201743 -0.30845538
-0.09806336 0.051306304 0.07034002 0.02592203 -0.0011954907 -3.84394e-05 0.030451354 0.041324742
-0.032059595 -0.12965347 -0.03526602 0.10873538 0.12651044 0.12532611 0.018410595 0.2370383
0.22704306 0.39726818 0.35131055 0.09680631 -0.07587242 -0.17282142 -0.18556018 -0.10338641
-0.22058927 -0.400583 -0.16267502 -0.213405 -0.13715084 0.05674334 0.034407195 -0.0015387393
8.596496e-13 -0.00062627246 0.038431525 0.1194586 0.0021590474 -0.08432023 -0.18076271 0.029237406
0.14239027 0.10723261 0.060104255 0.21952336 0.1732929 0.30518812 0.46767488 0.46411735
0.20448135 -0.058347687 0.0037498171 -0.2061174 -0.28066114 -0.28837767 -0.2920427 -0.13742721
-0.1253744 0.11989175 0.006125532 0.026128668 -3.1229084e-12 5.7869423e-05 0.017105736 0.13068108
0.07066038 -0.04550747 -0.2299277 -0.042677283 -0.050153196 0.0056380117 -0.24890055 -0.09100309
0.25732818 0.5588062 0.8063487 0.63898325 0.2736701 0.0508527 0.10749072 0.041272406
-0.18601607 -0.05128415 -0.07847451 -0.04570043 -0.0066168876 0.17292374 0.04043047 -0.0028700195
1.6167353e-13 -9.737912e-06 0.004258437 0.07881094 -0.0027989342 -0.033551242 -0.14474666 -0.10454314
-0.20877972 -0.1830096 -0.119774 -0.038586963 0.047966003 0.2754235 0.36898366 0.35820606
0.4740603 0.4453265 0.4808453 0.40894744 0.32919523 0.24037692 0.05649837 0.08174137
-0.01731729 0.05778559 0.0058587193 0.007072922 1.5974626e-18 -0.00479865 0.0043131327 0.051281158
-0.023892881 -0.10542888 -0.036782127 -0.041041564 -0.15225711 -0.09013477 -0.009165955 0.06055724
-0.08470331 -0.015581788 0.19564867 0.3426621 0.22758336 0.50286585 0.45124695 0.2727689
0.08611765 0.13849469 -0.0741858 0.015768358 0.06492875 0.05364823 0.0009603279 0.0047672093
1.224314e-12 -0.011582534 0.002192163 0.046123344 -0.03633184 -0.13588819 -0.027338844 0.0054950602
-0.019846667 -0.15232186 -0.1779995 -0.34015515 -0.25351477 -0.15234022 -0.06162571 -0.26215044
-0.076097965 0.09246728 0.03276136 -0.1950092 -0.48476002 -0.42719486 -0.33580205 -0.287781
-0.008464197 0.07496073 0.05030518 0.03866749 2.950805e-12 -0.010704768 -0.015837483 -0.010157724
0.06984348 0.05945038 0.00859803 0.20876847 0.13178118 0.18277366 -0.014778302 0.10566437
-0.021169048 0.0064713093 -0.1245735 -0.14660273 -0.16489826 0.072602466 0.05662044 0.057837285
-0.03730309 0.27741504 0.119560376 0.051354 0.0364926 -0.01903776 0.020762887 0.026343659
0.024970252 -0.016508445 -0.019829279 0.031461593 -0.003796902 0.087698534 0.1943817 0.24229658
0.3119012 0.3727367 0.24339521 0.17371601 0.069328256 0.051430732 0.19690767 0.06714669
0.19747601 0.25169557 -0.10503775 -0.13211842 0.05301878 0.14807849 0.16897398 -0.06287434
-0.14610188 -0.18802705 -0.0046784948 -0.00031188145 -2.3742233e-10 -0.025961298 -0.023941558 0.033567317

lstm_R f4 [1, 60, 15]
00000000: 1001 583f dd4e 80be 4aaf 16bd 2713 383f
00000010: 9cc9 dc3e 02ff 6d3e 8c7f d43e 6467 36bf
00000020: c033 d5be b408 16be 1d2e a3bd 0378 e53e
00000030: 9181 ebbe bc27 4a3f 10c8 b93d 149f acbd
00000040: 1864 c6bc e4ba 3e3e c3e5 803e 6a25 b8be
00000050: aae6 383f e290 bfbd 7464 b73d 3c49 39bf
00000060: a0fa e33e 8ada a13e 3c30 a3be 9dff b8be
00000070: 390f 1abf 550a 2abe 1707 2bbf 0381 1f3f
00000080: d10d 48bc 27aa 063e f065 de3e 9eaf 0bbf
00000090: 7a9f 89be ddd2 563e 75bf 51be 2f0c 25bf
000000a0: a994 8a3e f5a8 37bf a904 203f 18e2 aebe
000000b0: 32cf cdbe 84e3 e23e 3af0 393f f581 023e
000000c0: 7482 8e3f 41e5 e23e 4b64 603e 5531 6abe
000000d0: 09f1 51bf 9289 98bc 5df7 b5be 5415 9cbe
000000e0: d29f a2be 2dd9 df3d 111b f33e df89 6d3f
000000f0: ccb8 873e 4084 b5bd e9cf 29be 430d 2f3f
00000100: b7db 123e 5241 963b 78e2 d33e 255b 403e
00000110: 80ee 6dbe 8752 f23e 9847 633e cea9 f7bd
00000120: 3100 34be 9e8d 47be cda5 aa3d 22ca 983e
00000130: b718 9e3e f678 5e3e 164e b13e 0fee f03d
00000140: 5e79 c83e 60f0 ca3e 9054 093e 1e7d c43e
00000150: c8f5 fbbc 8255 763e 4cdd 75bf c93e b7bc
00000160: 1762 f93e 0558 e7bd aa5d a0be 1faa b53c
00000170: c437 bf3e 119e 2f3e 29ab 23bf 186f 7c3e
00000180: 9203 a8bd 975d bb3e 5e28 d5be f6d2 9e3e
00000190: 5cdf 373e 2e40 80be 0452 8d3d 56ae 033e
000001a0: 6edc 4cbd d31d 17be 2566 e73e 52bb 983e
000001b0: 2cd9 273f f590 bfbc d1d5 5cbc 0364 74be
000001c0: ab1c 52bf d772 f9bd 5b5d 00bf c5c5 163f
000001d0: 3027 d13e 062f 7f3f d627 cbbe 4138 433f
000001e0: 4bbb 04bf 835a a7be c902 343e 0581 ab3d
000001f0: 65f0 54be 10cc efbe 24bd 6e3e 5cbe 723e
00000200: 8d37 9bbd 32a9 173e 0278 74be 58c1 6dbe
00000210: b544 65be 155b 8f3e 1828 903c dc85 87be
00000220: 2779 2abf 1af8 3bbe 9a5e 973e 1c35 1ebe
00000230: 8a0f a0be 1081 fcbc b207 a9be b453 e03e
00000240: cf2b 8abe af1d a7be 206f 81bf 3e45 d3be
00000250: 319b e63e c121 f73e e115 9b3e 0c38 02bf
00000260: 3c46 23bf 8a7a bf3f 2548 a63e 0312 d33e
00000270: 6eb4 b23b 9332 0b3e 68d9 7ebf 9315 113e
00000280: e7dc b6bc 072b e43e ffd2 edbd 2182 de3e
00000290: f533 c6bc 9098 82bf e369 933e 48d2 2abf
000002a0: eb20 2c3f 2dd4 973e 587b 16bf 3ef8 143f
000002b0: 2792 103f 0247 643e 4a3a d5be e810 7d3d
000002c0: 391d a53d 663e 443e fc20 b5be 67bc a8be
000002d0: 5949 9e3e c3c0 3c3e 3827 35be 72bb 95bc
000002e0: eca3 52bf edd3 453f 91a3 293f 2db8 14be
000002f0: bdf6 07be 6296 523f 9f60 33be cffb 15bf
00000300: 6a81 a0bf f3c1 933e 4cd2 a1be 2406 073f
00000310: ad1f 18bf 018c d9be 20fa 13bf 0bde 0e3e
00000320: 07a1 f5be f98a 123f ad5e 743e 3b2b b53e
00000330: 1160 c83d b1cf ffbe 2f20 38bd 646c 1dbf
00000340: d182 0c3f 0bf4 a2be a6d1 90bd 5caa b23d
00000350: 18df b23e 6a45 cc3e 180c b7be 5495 ad3e
00000360: c774 1cbf ff82 dcbe 2aa8 04bf 0471 18bf
00000370: f937 f13e 739d 1e3f abcf 22bf f6fe 31be
00000380: b650 8fbd b971 7fbe f236 933d 4b7d 4d3e
00000390: fc12 2d3e 0bc9 abbd bc37 08be fd55 393e
000003a0: d12e 4abe 6195 09bf 6f5b 153e 73f0 133e
000003b0: 2660 47bd f881 f03d 5144 ca3e 41fb 943d
000003c0: b96d c2bd 82db 27be f1bd 193e 289a c43e
000003d0: bd92 243d 571b 09bd ec97 593e be1d 86be
000003e0: 3c47 b8bc 847b 03bd 4907 833d 9316 d8be
000003f0: 575f 9a3e 826e 8f3e 1ff3 d6bd 894e f4be
0.8437662 -0.25060168 -0.036788262 0.71904224 0.43122566 0.23241809 0.4150356 -0.7125151
-0.41641045 -0.14651757 -0.0796778 0.44818124 -0.4599729 0.7896688 0.09071362 -0.08428779
-0.02421765 0.1862598 0.25175294 -0.35966045 0.72226965 -0.09353806 0.08954707 -0.7237737
0.4452715 0.31612045 -0.31872737 -0.36132517 -0.6017948 -0.16605504 -0.66807693 0.6230623
-0.012210325 0.13150845 0.43437147 -0.54564846 -0.26879483 0.20978875 -0.20483191 -0.64471716
0.27066544 -0.7174218 0.6250711 -0.3415687 -0.4019714 0.44314206 0.7263218 0.12744887
1.1133561 0.44315532 0.21913259 -0.22870381 -0.82008415 -0.018620286 -0.35540286 -0.30485022
-0.31762558 0.10930095 0.47481588 0.927885 0.26508176 -0.08863115 -0.16583218 0.6837961
0.14341627 0.0045854235 0.4138372 0.18784769 -0.23235512 0.47328588 0.2219528 -0.120929345
-0.17578198 -0.19487616 0.08332405 0.29841715 0.3087823 0.2172583 0.34629887 0.11764156
0.39155096 0.39636517 0.13411164 0.38376707 -0.030756846 0.24056056 -0.960408 -0.022368805
0.4870765 -0.11296085 -0.3132146 0.022175847 0.37347233 0.17150141 -0.63933045 0.24651754
-0.08203806 0.3659484 -0.4163236 0.31020325 0.17956299 -0.25048965 0.06900409 0.12859473
-0.050014906 -0.14757471 0.45195118 0.29830414 0.65565753 -0.02338455 -0.013478712 -0.23866276
-0.82074994 -0.12180107 -0.5014245 0.5889552 0.4085021 0.9968113 -0.3967883 0.7625771
-0.51848286 -0.32686242 0.17579187 0.08374218 -0.20794828 -0.46835375 0.23314339 0.23705429
-0.07578955 0.14810637 -0.23873904 -0.23218286 -0.22389491 0.27999178 0.017597243 -0.26469314
-0.66591114 -0.18356362 0.29564363 -0.15449947 -0.31261855 -0.03082326 -0.33013684 0.4381386
-0.26986548 -0.32639834 -1.0112038 -0.41263765 0.45040277 0.4826794 0.3029013 -0.5086677
-0.63779044 1.4959271 0.32476917 0.4122468 0.005453638 0.13593511 -0.99550486 0.14168386
-0.022322131 0.44564077 -0.1161251 0.43458655 -0.024194697 -1.0202808 0.28791723 -0.66727114
0.6723773 0.29654065 -0.5878196 0.5819129 0.5647301 0.22292712 -0.41646034 0.0617837
0.080622144 0.19164428 -0.35376728 -0.3295624 0.30915335 0.18432908 -0.17690742 -0.018277857
-0.82281375 0.772765 0.6626521 -0.14523382 -0.13277717 0.82260716 -0.17517327 -0.58587354
-1.2539494 0.2885891 -0.31605756 0.52743745 -0.59423333 -0.42489627 -0.57803535 0.1395189
-0.47974417 0.57243305 0.23864241 0.35384545 0.09783948 -0.49963143 -0.044952568 -0.61493516
0.5488711 -0.31826815 -0.07071237 0.087239 0.34935832 0.3989671 -0.35751414 0.3390299
-0.6111569 -0.43068692 -0.518191 -0.5954745 0.47113016 0.61959 -0.63598126 -0.17382416
-0.06997816 -0.24945726 0.07188214 0.20067327 0.16901773 -0.08387955 -0.13302511 0.18099208
-0.19744422 -0.5374356 0.1458566 0.14447193 -0.04867568 0.117435396 0.39505246 0.072744854
-0.09493584 -0.1639233 0.15013863 0.38398862 0.040179003 -0.03347334 0.2124936 -0.26194566
-0.022494905 -0.032100216 0.06397874 -0.42204723 0.30150864 0.28013998 -0.104955904 -0.47716168

lstm_B f4 [1, 120]
00000000: 50fc cd3e af78 a03e 55ca 5c3e 3225 e03e
00000010: 9c6f bd3e 5170 4fbe 729e d73d 4de3 9e3d
00000020: 1b59 9a3d e7a1 11be a8d8 613f 23b0 ba3e
00000030: 711e 0b3f 4066 5bbe ed40 17bd 0e21 4a3f
00000040: f3ed d13e 1429 023f 201b 463e 2050 6f3f
00000050: 5158 e1bc a6b3 5a3f 37b6 693f 6b24 e43c
00000060: 26f3 f33e a661 2f3f cf49 963f f429 0a3f
00000070: 3ff4 1e3f c8af 0c3f 1f80 8a3f cdaf a33f
00000080: fe1b a53e ede1 663f 6f15 8d3f bc5d 653f
00000090: 243e 7e3f a0f9 a13f 347d 853f 3439 8c3f
000000a0: e61a 9d3f bab6 b03f 7be0 893f 2e07 c03f
000000b0: 69c5 c13f 2ae8 78be b5f9 0dbe 181e 91be
000000c0: fe6a 583e cc6b 703d fe44 f7bd 1ee4 853e
000000d0: 0ab9 00bd 8cd3 5cbd c0b9 673c 5900 11be
000000e0: f5b5 b1bd 0510 a03e a4b4 833d 3723 03bd
000000f0: 0000 0000 0000 0000 0000 0000 0000 0000
00000100: 0000 0000 0000 0000 0000 0000 0000 0000
00000110: 0000 0000 0000 0000 0000 0000 0000 0000
00000120: 0000 0000 0000 0000 0000 0000 0000 0000
00000130: 0000 0000 0000 0000 0000 0000 0000 0000
00000140: 0000 0000 0000 0000 0000 0000 0000 0000
00000150: 0000 0000 0000 0000 0000 0000 0000 0000
00000160: 0000 0000 0000 0000 0000 0000 0000 0000
00000170: 0000 0000 0000 0000 0000 0000 0000 0000
00000180: 0000 0000 0000 0000 0000 0000 0000 0000
00000190: 0000 0000 0000 0000 0000 0000 0000 0000
000001a0: 0000 0000 0000 0000 0000 0000 0000 0000
000001b0: 0000 0000 0000 0000 0000 0000 0000 0000
000001c0: 0000 0000 0000 0000 0000 0000 0000 0000
000001d0: 0000 0000 0000 0000 0000 0000 0000 0000
0.40231562 0.31342074 0.21561559 0.43778378 0.36999214 -0.20257689 0.10528268 0.07758198
0.07536527 -0.14221917 0.88221216 0.36462507 0.54343325 -0.21425724 -0.036927152 0.7895669
0.41001853 0.5084393 0.19346285 0.93481636 -0.027507933 0.8543037 0.9129366 0.027849397
0.47646445 0.68508375 1.1741275 0.53970265 0.6209144 0.5495572 1.082035 1.2788025
0.3224792 0.90188485 1.1022166 0.8959615 0.9931357 1.2654305 1.0428834 1.0954957
1.2273834 1.3805764 1.0771631 1.5002191 1.513837 -0.24307314 -0.13864787 -0.28343272
0.21134564 0.058696553 -0.12073706 0.26150602 -0.031426467 -0.053912684 0.014143407 -0.14160289
-0.08677284 0.31262222 0.06430939 -0.032016005 0.0 0.0 0.0 0.0
0.0 0.0 0.0 0.0 0.0 0.0 0.0 0.0
0.0 0.0 0.0 0.0 0.0 0.0 0.0 0.0
0.0 0.0 0.0 0.0 0.0 0.0 0.0 0.0
0.0 0.0 0.0 0.0 0.0 0.0 0.0 0.0
0.0 0.0 0.0 0.0 0.0 0.0 0.0 0.0
0.0 0.0 0.0 0.0 0.0 0.0 0.0 0.0
0.0 0.0 0.0 0.0 0.0 0.0 0.0 0.0

lstm_initial_h f4 [1, 1, 15]
00000000: 0000 0000 0000 0000 0000 0000 0000 0000
00000010: 0000 0000 0000 0000 0000 0000 0000 0000
00000020: 0000 0000 0000 0000 0000 0000 0000 0000
00000030: 0000 0000 0000 0000 0000 0000
0.0 0.0 0.0 0.0 0.0 0.0 0.0 0.0
0.0 0.0 0.0 0.0 0.0 0.0 0.0

lstm_initial_c f4 [1, 1, 15]
00000000: 0000 0000 0000 0000 0000 0000 0000 0000
00000010: 0000 0000 0000 0000 0000 0000 0000 0000
00000020: 0000 0000 0000 0000 0000 0000 0000 0000
00000030: 0000 0000 0000 0000 0000 0000
0.0 0.0 0.0 0.0 0.0 0.0 0.0 0.0
0.0 0.0 0.0 0.0 0.0 0.0 0.0

fc_MatMul_W f4 [15, 10]
00000000: 2785 bc3f 545d c7bf da41 cebf 801e 753f
00000010: ae3a 773f 77f6 6f3f 3793 1ebf e13d bdbf
00000020: 029c d63e 7fd4 76bf 7a11 d43f 3601 9dbf
00000030: 049d 4e3f b43b 81bf b2f4 d3bf 0130 9bbe
00000040: fd77 a53f 46a5 d23e 5b19 8d3f 5920 8fbf
00000050: f905 cdbe b4bf f63d f579 10c0 af3f b1bf
00000060: 1458 4f3f 5b8c 99bf 126d a73f d2d8 133f
00000070: 4186 1440 ac11 973f 8e7e ae3f 0f72 1dbf
00000080: c1a6 1cc0 506f 79bf 7b82 e63e 514f 803f
00000090: f298 f7bf b8b3 8d3f 1312 0fbf c0ef 373f
000000a0: 9f5f 8b3f 8b66 d03f e198 1340 2e05 f8bf
000000b0: 398a 9f3f 92e3 13c0 9a54 5dbf b554 1dbf
000000c0: 2e73 de3f 1491 adbf 0af8 bb3e 9d31 23bf
000000d0: ebab 953e f87c 823f e94b b3bf c157 8cbe
000000e0: 5ff3 1b3f 0ec1 20c0 90fa 913f 170e 2b3f
000000f0: 0ee2 83bf c95d 10c0 c04a c53f 3695 40bf
00000100: 1c62 f73f 0db2 31bf 1ce1 933f 6ef1 fdbf
00000110: d083 4abf 15be 163e 64a3 78bf a4c7 d43f
00000120: 8bf2 3b3e 2f21 0340 e99a 2cbf c920 02c0
00000130: 9016 7abe b40a 8a3f 62b8 c33e 78f4 cabf
00000140: 381c ce3c 0676 c23f c2be 653e d899 95bf
00000150: 733a 973f 3f06 94bf adce 703f 23a1 8cbf
00000160: 3a08 c3bf 151d b33f e561 19c0 aeeb 5a3f
00000170: fe33 283f a48a 0dbf 8ae2 853f fd08 1b3d
00000180: 9bb6 04c0 edfd 863f e1da d13f b572 2c3f
00000190: 52e1 133f cd2e 613f b85d a93f 472b 06bf
000001a0: fd5f 8ebf 11d2 223f 4053 8d3e 8164 b7bf
000001b0: e814 d53f 8521 fabf ee67 ba3f 54e7 debf
000001c0: a14a be3f 1a25 823f 68ed 5ebf 34bc a7bf
000001d0: ac1d e6bf 7e9d eb3f bceb cdbe 5fee 9b3e
000001e0: 819a e23f f3fa 583f e482 723f e741 97bf
000001f0: 2fec b83f d267 48bf c386 153f 8cca aa3f
00000200: 90a6 e2bf bf7e d8bf 7b49 813f 83c9 cfbf
00000210: 939e f1bd 6c4b bf3e 945f 4e3f 015d d4bf
00000220: f482 093f 6873 2d3f 7ee3 a93d 6715 6a3f
00000230: 2ef7 a53f 85a4 08bf 3a61 b8bf a797 a5bf
00000240: 98c7 e93f 4d1d 7bbe b75e e73f eb62 f6bd
00000250: a1b1 79bc 08aa 28bf
1.4728135 -1.5575356 -1.6113846 0.95749664 0.96573913 0.9373545 -0.6194338 -1.4784509
0.419159 -0.96417993 1.6567833 -1.2265995 0.80708337 -1.0096345 -1.655905 -0.30310062
1.2927243 0.4114172 1.1023363 -1.1181747 -0.4004362 0.12048283 -2.2574437 -1.384756
0.8099377 -1.1995958 1.3080161 0.57752717 2.3206942 1.1802268 1.3632371 -0.61502165
-2.4476779 -0.97435474 0.45021424 1.0024205 -1.934355 1.1070471 -0.55886954 0.71850204
1.0888556 1.6281294 2.306206 -1.9376581 1.2464057 -2.3107648 -0.86457217 -0.6145738
1.73789 -1.3559899 0.36712676 -0.6374758 0.29232726 1.0194387 -1.4007541 -0.274107
0.6091823 -2.5117831 1.1404591 0.66818374 -1.0303361 -2.2557242 1.5413437 -0.7522768
1.9326816 -0.6941231 1.1553073 -1.9839303 -0.7910738 0.14720948 -0.97124314 1.6623425
0.18354242 2.0489004 -0.67423874 -2.033251 -0.2442267 1.0784516 0.3822661 -1.5855856
0.02515994 1.5192268 0.2243605 -1.1687574 1.1814712 -1.1564406 0.9406536 -1.0986675
-1.5236886 1.399325 -2.3966 0.8551587 0.65704334 -0.55289674 1.0459759 0.03785037
-2.0736454 1.0546242 1.6394922 0.6736253 0.57765687 0.8796204 1.3231726 -0.52409786
-1.1123043 0.63601786 0.27602577 -1.4327546 1.6647005 -1.9541479 1.4562967 -1.7414346
1.4866525 1.0167572 -0.87081003 -1.310431 -1.7977805 1.8407438 -0.40218914 0.304553
1.7703401 0.8475792 0.94730973 -1.1816987 1.4447078 -0.7828342 0.58408755 1.3343062
-1.7707081 -1.691368 1.010055 -1.6233371 -0.11797824 0.3736223 0.8061459 -1.6590883
0.53715444 0.6775422 0.08295344 0.9143891 1.2966058 -0.53376037 -1.4404671 -1.2936906
1.8264036 -0.24522896 1.807578 -0.12030586 -0.015240104 -0.6588445

fc_Add_B f4 [10]
00000000: b0ac 2dbf 2abc 673f 1db3 8f3e be20 873d
00000010: 5a5f 99bd d9e6 a53e 7966 a2be e2a7 bc3e
00000020: ef54 40bf f2c9 57bc
-0.67841625 0.9052149 0.2806634 0.06598042 -0.0748889 0.32402685 -0.31718805 0.36846834
-0.751296 -0.013170706
