MNIST_LSTM_GRU/mnist/MNIST_LSTMnet.onnx (onnx, 99681 bytes, 7 tensors)

lstm_W f4 [1, 60, 392]
00000000: f673 e210 064a 88b9 d5e6 993b 3e0f 203d
00000010: 228f 823d 7c92 9c3d 269b 943d 87ee ac3d
00000020: eb0f 233e 9285 593e 20e4 1b3e 5e34 243e
00000030: 4bed 383e 88d6 993e 4d15 a93e fb09 9f3e
00000040: 79a9 0e3e 4f7c 233e 4d80 223e ac7e ff3d
00000050: fae4 c2bb 9af6 e4bc 4874 1ebd 7299 7fbd
00000060: 42c0 ebbd fc28 b8bc 3677 05bb 968b b029
00000070: a092 42a6 c3ed aa31 2f45 213c 6f4a 1b3d
00000080: 426f cf3d 5232 d43d 472d 9f3d 9232 013d
00000090: 532d b33d 22d9 bf3d c573 483d 01d0 4cbd
000000a0: 1f19 c7bb 40d0 3b3e c8e9 993e ff8a a93e
000000b0: 7053 9e3e 2612 3e3e c3d5 e63d 914f 4e3d
000000c0: 3a45 3abd c443 0bbe 15e3 09be c9b8 0dbe
000000d0: 1df0 01be ae23 a8bc 1c9f c6bb 21b0 0dba
000000e0: fcf1 dc25 5810 a130 2897 903c d941 083d
000000f0: 8728 b33d 0ba3 ee3d cc49 e63d 1ac7 be3d
00000100: 56c9 973d 1656 873d d88c 0abc 6c46 c8bd
00000110: 984f 2ebe bd36 3dbd d7a9 173e 50eb 723e
00000120: 4bd7 6f3e 61af 3f3e ecb0 123e 8ea1 b13d
00000130: 4057 3e3b e554 9fbd 7a3c d1bd 39a2 cfbd
00000140: 54af 82bd 9693 52bc 4951 78bb 0661 f934
00000150: e58d 0180 ef07 6830 054a 323c 5207 0d3c
00000160: 3656 513d 4db5 a73d b4d8 af3d f94c d63d
00000170: f494 ed3d 0b6f b13d affd 053d 7781 8bbd
00000180: cdd5 37be e106 49be 2c2c 12be 0989 99bd
00000190: 9398 d2bd b07f 69bd a2d3 c93d a47d 663d
000001a0: db77 ae3d d701 2d3e d6f3 6f3d d1c3 c63d
000001b0: f1fe 6c3d bb19 bcbb 93ab b8b8 2eee 5db8
000001c0: 9314 a72c 55ee 3fb9 5be8 afbb bf02 a2bc
000001d0: 9809 b13c 642e 183d deb4 803d 0adc 7f3d
000001e0: d012 d73d eccb f83d 7b8e 1f3d 269d bcbd
000001f0: 8f60 b0bc 298d 693c 407b d9bd fa58 59be
00000200: d405 2dbe decd 21be 91fa f5bd 2021 1b3d
00000210: 33ce dc3d a9c1 1d3e 3db7 bd3d 18cc 6c3e
00000220: c11f 5a3e ba7f 903d d2a0 6b3c a4b6 0e3a
00000230: 4e7a 8a2e 25f9 1e32 792c 39bc 0f9a e7bc
00000240: 88fa f839 baf5 683c 7a5e 1c3d 1cd1 8d3d
00000250: a19b 1e3e 7e51 143e 4c37 b43d 0676 573d
00000260: d80a 5e3a 2229 fabd 0bd0 f2bd aaad 38be
00000270: ec69 52be 371d 37be 4428 21be 2867 91bc
00000280: ada2 1d3d 0c36 e83d a645 dd3d b72e a13e
00000290: 88c5 683e 3aea 963d ad28 613c 063b 0b3b
000002a0: e550 0180 21a9 06b3 e0b6 153c 026e 7fbc
000002b0: ce9c cfbc 7a15 78bd 7ca4 d13d 4ad3 3c3e
000002c0: 575e 3e3e 5c23 203e 3796 dc3d e805 173b
000002d0: 37bc e63d a62d 97bc 7d7c a73c ab0b c6bc
000002e0: eee7 0fbe 9381 5cbe 26a4 a3be 2583 4abe
000002f0: 889e c9bd 2ad3 91bd 2529 f93d 180b b33e
00000300: 8948 5f3e 1708 f43d 0e9a 213d 4f40 b53a
00000310: 25a2 b6a8 bd88 56bc 8c0c 963c 9c7f e8bb
00000320: 8b99 febd 938c 92bd 5ab9 3a3d 933b 1d3e
00000330: 2d61 573e 005f 483e 68b7 403e 3380 3a3e
00000340: 1d2a 133e e759 673e 076c 6a3e 4756 373e
00000350: 3ee9 8dbd 8320 12be e460 abbe a853 a5be
00000360: 249b 7fbe 2a5d 2dbe 2269 b43c 00d3 1e3e
00000370: 24a2 273e 3cf0 a83d 507a 6a3d 4014 df3b
00000380: f694 9329 b0b0 2dbc fb68 9c3b 850a 993c
00000390: e4d4 62bd d7cf 84bd 28e5 443d 3d50 693e
000003a0: a5b6 7e3e a5aa 9b3e afe0 ae3e ff84 ab3e
000003b0: 8935 883e 94b5 a43e 2d4c a73e ab91 c93d
000003c0: 2f0f fbbd 01e2 e4bd fd4a fbbd 82b3 52be
000003d0: 8141 86be 5ce2 37be 95cc 97bd c6d4 563d
000003e0: 3a94 563e 7851 383e 9c40 153d 59d9 433c
000003f0: e80b 2ea8 7515 12b8 4303 863c cda3 2a3d
8.931995e-29 -0.00025995093 0.004696707 0.039077036 0.06374957 0.07645127 0.07256155 0.08443933
0.15924041 0.2124236 0.15223742 0.16035601 0.1805927 0.30046487 0.33024064 0.31062302
0.13931836 0.15965389 0.15869255 0.124753326 -0.0059477063 -0.02794962 -0.038685113 -0.062402196
-0.1151128 -0.02248048 -0.0020365245 7.8401844e-14 -6.7505985e-16 4.9746816e-09 0.009843155 0.037912782
0.101286426 0.1036116 0.07772308 0.03154237 0.08748879 0.09367587 0.04893853 -0.050003055
-0.0060759927 0.1834116 0.30061173 0.33113858 0.30923033 0.1856161 0.112712406 0.05036885
-0.045476176 -0.1360007 -0.13465531 -0.13840021 -0.12689252 -0.020524826 -0.006061448 -0.00054049684
3.8327891e-16 1.1718937e-09 0.017650202 0.033265922 0.08747964 0.11652192 0.112445444 0.09315319
0.07411449 0.066082165 -0.008456431 -0.09779057 -0.1702255 -0.04619478 0.14810883 0.23722577
0.23421971 0.18719245 0.14325303 0.08673392 0.0029043704 -0.07779864 -0.10216613 -0.101383634
-0.063810974 -0.01285257 -0.0037890247 4.6450458e-07 -1.42738e-40 8.441238e-10 0.010881905 0.008607702
0.051107608 0.08188877 0.08586255 0.104639 0.11600676 0.08663758 0.032712635 -0.06811803
-0.17952652 -0.1963153 -0.14274663 -0.074968405 -0.102830075 -0.057006538 0.09854819 0.056272164
0.08518954 0.16895233 0.05858215 0.09705318 0.05786032 -0.005740372 -8.805762e-05 -5.2912328e-05
4.7487097e-12 -0.00018303965 -0.005368275 -0.0197767 0.02161102 0.037153617 0.06284498 0.062465705
0.10501635 0.1214827 0.03895424 -0.09209661 -0.021530418 0.014254847 -0.10619211 -0.21225348
-0.16896755 -0.15801188 -0.120106824 0.037873387 0.10781517 0.15405907 0.092634656 0.2312473
0.21301176 0.07055612 0.014381604 0.00054440857 6.297239e-11 9.253459e-09 -0.011302107 -0.028271703
0.00047488906 0.014218742 0.038176037 0.0692465 0.15489055 0.14484212 0.087996095 0.05260279
0.0008470244 -0.12214877 -0.11856087 -0.18034998 -0.20548218 -0.17882238 -0.15738016 -0.017749384
0.038485218 0.113384336 0.108043 0.31480953 0.22731602 0.07368894 0.013742608 0.0021244898
-1.20855e-40 -3.1353128e-08 0.009137839 -0.015590193 -0.025343325 -0.060567357 0.10236451 0.18439975
0.18590675 0.15638489 0.10770839 0.0023044292 0.11266368 -0.018454384 0.020445103 -0.024175486
-0.14053318 -0.21533804 -0.31961173 -0.1977659 -0.098446906 -0.071203545 0.12166051 0.349694
0.21805014 0.119156055 0.03945356 0.001382837 -2.0276378e-14 -0.013094124 0.01831653 -0.0070952903
-0.1243163 -0.07155719 0.04558692 0.15354757 0.21033163 0.1956749 0.18819964 0.18212967
0.14371534 0.22592889 0.22892772 0.17904006 -0.06929253 -0.14270215 -0.3347236 -0.32290387
-0.24961525 -0.1693007 0.022022787 0.15510178 0.16370445 0.08248946 0.057245553 0.006807834
6.553952e-14 -0.010601208 0.004773257 0.018681774 -0.05537881 -0.06484955 0.048070103 0.22784515
0.24874361 0.3040363 0.34155795 0.33499905 0.26603344 0.32169783 0.32675305 0.09842237
-0.122587554 -0.11175919 -0.12270162 -0.2057629 -0.2622185 -0.17957443 -0.07412068 0.05244901
0.20954981 0.17999828 0.03643857 0.011953675 -9.661522e-15 -3.4829096e-05 0.016358977 0.04166012

lstm_R f4 [1, 60, 15]
00000000: 962f ad3e af80 4e3e 40f0 463e 47d7 bbbe
00000010: db35 b33e cde9 d23d d103 903b 561b 083e
00000020: f42a b13d f119 2e3d 3686 ae3e 23d8 873e
00000030: 6154 f43d f31d 07bf 9706 c13d 62c4 febd
00000040: 41c6 3c3d ed11 fb3a c65a a6bd 511d 8dbb
00000050: 90d6 2b3d 0b3e 3abd 256c 56bc e69c 24bd
00000060: c481 153d 39dd 4c3d cbf4 973c cc8a 85bd
00000070: fad6 8abd 193e 69bd a3fd e7bd 3980 35be
00000080: 1497 3bbd dabc d03e 54b1 7b3e caf3 e23e
00000090: db7e 1b3f 639c ac3d 289e 5ebe 8c95 183c
000000a0: 36fb 00be bb5d 3f3e b080 af3e cadd 4c3e
000000b0: 56d4 323e 5df7 4fbd 195b a9be 95f8 15be
000000c0: 677d 783e f124 17bd 62c4 ea3d 0d10 b4be
000000d0: 2263 64be eaec 813d 7e76 143e a3c0 36be
000000e0: 1a94 3fbc 4d1e 2fbd 2539 993e be1c b03e
000000f0: d727 94be 1591 403d 748d f43d 3fd2 bdba
00000100: 2620 1a3f fc81 0cbe 23d2 1abe 30bd 9d3d
00000110: 222c 25be 25fb fd3e 7d60 b23d 6208 75be
00000120: 014b 62be 2bd2 983e 64d1 85be 5c19 adbe
00000130: 67ba 433d 4254 233e 0746 1f3e 0a3b 07be
00000140: b4c3 0ebe 359b 3a3e b58d 04be 21a4 b3bd
00000150: eca6 c7bd 2d25 b03e 0fef 123e 4a57 d53e
00000160: 0ec9 abbe 5846 a7be fb8a 2fbe 2af0 12be
00000170: 7ca6 28bd e0b8 9a3e d92c dabc 5a8a e03e
00000180: dc60 bc3e 05d2 d6be 177b 4cbe 4927 b4be
00000190: 634a 8e3a 0963 c43e 2aa4 293f cede 6fbe
000001a0: 3066 573e 0a88 ba3d 51a3 adbd 680e e1bd
000001b0: cea6 cb3c fa3e 46be c952 55be a618 723e
000001c0: 7b5d b4be 13c5 afbe 298f b5bd 7ec3 a9bb
000001d0: fffd 643d 4685 693e 21ca d8be 8ef0 79be
000001e0: a9a5 87be 5520 1bbb e702 9a3d b54f 233e
000001f0: c7e3 b93e 7049 623d c298 993e d768 debd
00000200: 4ad7 d2bd 52fe 823d 0683 313e 83e6 113f
00000210: 9952 263f eaa7 40be 7fff bb3d 2bf9 a33d
00000220: 231d 96bd a5f8 793e fcfd 27bd aa37 1b3e
00000230: 3b6f 233e 43a6 8c3e 01cc c4be 23cd b9bd
00000240: e6ed b6be 3ed1 b73c 4866 7b3e da9a 353e
00000250: 2320 dabd 45fe 94bd e1ff 1d3f 627f 2dbe
00000260: cf4c ebbe 4eab 5d3e fac0 89bd 347a cebd
00000270: 6feb 9e3e 6357 2bbd ba06 b8bd 0428 fb3e
00000280: 30c8 90be e171 d53e f8d6 b43e 50bb ff3c
00000290: b27a 893e 5567 96be bf3f 0d3f a33b 1a3e
000002a0: d275 8ebe 1b17 d4be d660 4fbe 14c5 4cbe
000002b0: 80b3 953e c5ff 393d aa93 ab3e 9596 6f3d
000002c0: 87bc ac3d 3eef 953d 5aeb a0be 7869 0bbf
000002d0: 14e1 b33d 4686 95bd 355a 993c 4ae1 943e
000002e0: da75 383e a227 95be c395 6a3e ff1d 7e3e
000002f0: 8824 02be 6d3a 253d 560e 113d ea07 23be
00000300: 4a61 d93d f0bf 683d 25d5 c53c d1af c93e
00000310: 01eb 1abe c553 aebe f9e2 3e3d 23eb 1abe
00000320: fc98 3bbe f42e a2be e898 bfbe 5c26 0bbf
00000330: 07aa aa3e 2c71 92be 66be da3e 2b8c ef3c
00000340: 4839 74be c540 ba3e a109 b23d 5c79 86bd
00000350: 785b ca3d 2f05 82be 96b3 8f3e e624 f63e
00000360: cd04 96bd 99d1 1bbe bfd5 b73e 194d 19bd
00000370: 8161 c23e 7049 883e f056 063e 6989 073c
00000380: 9ee9 8b3e 675f c83c 1de3 f0bb 512b 8abd
00000390: 0f43 89bd 1ebe 3bbd 4673 0d3d 2c90 35bd
000003a0: 8540 ecbb 5a58 593d 241b 1fbe 93ef 0ebd
000003b0: d575 cc3d f0fe d03d 7454 39be 1b53 42bd
000003c0: 404f 3a3e 06d2 9b3d 8db0 8ebe bf23 88be
000003d0: 9957 893d 9603 b23d 3d98 c3be e31a 3ebe
000003e0: 312e 4fbe 92f7 8a3e eec8 fcbc b73f 1a3f
000003f0: 595e 223d 6e67 acbe e5af 693e 5067 183d
0.33825368 0.20166276 0.19427586 -0.3668768 0.35002026 0.102985 0.004394986 0.13291678
0.08650771 0.04250521 0.3408677 0.26532087 0.119301565 -0.52780074 0.09425085 -0.12439801
0.046087507 0.0019155123 -0.081227824 -0.0043064733 0.04195267 -0.045469325 -0.013087307 -0.040188693
0.036500707 0.050015662 0.018549344 -0.06520614 -0.06779285 -0.056943987 -0.11327674 -0.17724694
-0.045798376 0.40769082 0.24579364 0.4432662 0.6074044 0.08428266 -0.2174002 0.0093129985
-0.1259583 0.18688099 0.34277868 0.20006481 0.17463812 -0.050773013 -0.33077314 -0.14645608
0.24266587 -0.036900464 0.11463238 -0.35168496 -0.22303441 0.06344016 0.14498326 -0.17846923
-0.011693025 -0.042753506 0.2992641 0.3439693 -0.28936645 0.04701336 0.119410425 -0.0014482214
0.60205305 -0.1372146 -0.15119223 0.077021 -0.16130117 0.4960567 0.0870981 -0.23928979
-0.22098924 0.29847845 -0.26136315 -0.3380841 0.04778519 0.1595011 0.15554057 -0.13206115
-0.13941842 0.1822327 -0.12944682 -0.087715395 -0.09748635 0.34403363 0.14349006 0.4166816
-0.3355183 -0.32670856 -0.1714286 -0.14349428 -0.041174397 0.30219173 -0.026632713 0.43855554
0.36792648 -0.41957107 -0.1996883 -0.35186222 0.0010855909 0.38356808 0.6626612 -0.23424837
0.21035075 0.09107979 -0.08478416 -0.10989076 0.024859812 -0.19359961 -0.20832361 0.23642215
-0.3522757 -0.34330043 -0.08865196 -0.005180775 0.055906292 0.22804746 -0.42341712 -0.2440817
-0.26493576 -0.0023670394 0.07520085 0.15948375 0.36306593 0.055245817 0.29999357 -0.1085984
-0.102949694 0.06396164 0.17335138 0.5699236 0.64969784 -0.18814054 0.091795914 0.080065094
-0.07329776 0.24411257 -0.041013703 0.15157953 0.159604 0.27470598 -0.38436893 -0.0907233
-0.35728377 0.022438642 0.24550736 0.17734852 -0.10650661 -0.072750606 0.61718565 -0.16943124
-0.45957038 0.21647379 -0.067262605 -0.10081902 0.31038997 -0.041831385 -0.08985658 0.49053967
-0.2827773 0.41688445 0.35320258 0.031217247 0.26851422 -0.2937571 0.55175394 0.15061812
-0.27824265 -0.41423878 -0.20251784 -0.19997054 0.2923851 0.045409936 0.33511096 0.058493216
0.08434396 0.073210225 -0.3142956 -0.5445781 0.087831646 -0.07301001 0.018719772 0.29078132
0.18013707 -0.291318 0.22908692 0.2481613 -0.12709248 0.040338922 0.035414062 -0.15920988
0.106142595 0.05682367 0.024149487 0.3939195 -0.1512871 -0.34048286 0.046603177 -0.1512876
-0.18320078 -0.31676447 -0.37421346 -0.54355407 0.33332846 -0.28601968 0.42723387 0.029241642
-0.23849976 0.3637754 0.08693243 -0.06566116 0.098807275 -0.2539458 0.280667 0.48075026
-0.073251344 -0.15216674 0.35905263 -0.03742704 0.37965015 0.26618528 0.13119102 0.008272507
0.27326673 0.024459554 -0.0073512928 -0.06746543 -0.067022435 -0.045835607 0.03453376 -0.044326946
-0.0072098398 0.053062774 -0.15537697 -0.034896445 0.09983412 0.102048755 -0.18098623 -0.047442537
0.18194294 0.07608418 -0.27869073 -0.26589772 0.06706161 0.0869209 -0.38202086 -0.18564944
-0.20232464 0.27142006 -0.03085753 0.6025347 0.03964076 -0.3367266 0.22821005 0.0372079

lstm_B f4 [1, 120]
00000000: 5217 dc3e 81d9 ca3e 308e df3d 5071 233e
00000010: 2e3a 883e e832 023e 7287 c6bc f2df a53d
00000020: 8ce2 983d bc90 d1bc ffb8 65bd 92b4 163e
00000030: 71bd a43d 2451 1d3e 8e4d 543e 0265 353f
00000040: ab4e be3e 3c23 e83e f472 a63e 768c ac3e
00000050: d4cd c93e 7bbb 7e3e 5f97 153f 5dfc d03e
00000060: 2c5f 2c3e bc01 423e e50e db3e 6c63 a53e
00000070: c76c b13e 6de0 d33e 20f6 823f 16fa 993f
00000080: 377b a73f ea54 9c3f 2639 8e3f 600d 973f
00000090: a025 a53f ef21 853f bab4 6f3f e7ca 773f
000000a0: a67a 903f 8346 943f d3c7 8b3f 3f9e 763f
000000b0: e054 3d3f 1040 e33d ba8f 3cbe b9e1 afbd
000000c0: 14c4 c0bd 1101 8a3d 49f1 e93d 76ad 4dbe
000000d0: 5b20 a9bb a264 59be 1d95 8d3d 1e46 363e
000000e0: 3123 e7bd 7643 dfbc a32a ce3d 874f eabd
000000f0: 0000 0000 0000 0000 0000 0000 0000 0000
00000100: 0000 0000 0000 0000 0000 0000 0000 0000
00000110: 0000 0000 0000 0000 0000 0000 0000 0000
00000120: 0000 0000 0000 0000 0000 0000 0000 0000
00000130: 0000 0000 0000 0000 0000 0000 0000 0000
00000140: 0000 0000 0000 0000 0000 0000 0000 0000
00000150: 0000 0000 0000 0000 0000 0000 0000 0000
00000160: 0000 0000 0000 0000 0000 0000 0000 0000
00000170: 0000 0000 0000 0000 0000 0000 0000 0000
00000180: 0000 0000 0000 0000 0000 0000 0000 0000
00000190: 0000 0000 0000 0000 0000 0000 0000 0000
000001a0: 0000 0000 0000 0000 0000 0000 0000 0000
000001b0: 0000 0000 0000 0000 0000 0000 0000 0000
000001c0: 0000 0000 0000 0000 0000 0000 0000 0000
000001d0: 0000 0000 0000 0000 0000 0000 0000 0000
0.42986542 0.39619067 0.10915792 0.15961194 0.26606888 0.12714732 -0.024234507 0.08099355
0.074650854 -0.02558171 -0.05608463 0.1471732 0.080439456 0.15362984 0.2073271 0.7085725
0.37169394 0.45339382 0.32509577 0.33700913 0.39414847 0.24876206 0.584341 0.40817538
0.1683318 0.18945974 0.427848 0.32302415 0.34653303 0.4138216 1.0231361 1.2029445
1.3084477 1.2213414 1.111119 1.1800957 1.2902107 1.0400981 0.9363514 0.9679398
1.1287429 1.1584018 1.0920357 0.96335214 0.73957634 0.11096203 -0.18414202 -0.08587975
-0.09412399 0.06738485 0.114229746 -0.20085701 -0.005161328 -0.21229795 0.06913207 0.17800185
-0.11286009 -0.027253848 0.10066726 -0.1144095 0.0 0.0 0.0 0.0
0.0 0.0 0.0 0.0 0.0 0.0 0.0 0.0
0.0 0.0 0.0 0.0 0.0 0.0 0.0 0.0
0.0 0.0 0.0 0.0 0.0 0.0 0.0 0.0
0.0 0.0 0.0 0.0 0.0 0.0 0.0 0.0
0.0 0.0 0.0 0.0 0.0 0.0 0.0 0.0
0.0 0.0 0.0 0.0 0.0 0.0 0.0 0.0
0.0 0.0 0.0 0.0 0.0 0.0 0.0 0.0

lstm_initial_h f4 [1, 1, 15]
00000000: 0000 0000 0000 0000 0000 0000 0000 0000
00000010: 0000 0000 0000 0000 0000 0000 0000 0000
00000020: 0000 0000 0000 0000 0000 0000 0000 0000
00000030: 0000 0000 0000 0000 0000 0000
0.0 0.0 0.0 0.0 0.0 0.0 0.0 0.0
0.0 0.0 0.0 0.0 0.0 0.0 0.0

lstm_initial_c f4 [1, 1, 15]
00000000: 0000 0000 0000 0000 0000 0000 0000 0000
00000010: 0000 0000 0000 0000 0000 0000 0000 0000
00000020: 0000 0000 0000 0000 0000 0000 0000 0000
00000030: 0000 0000 0000 0000 0000 0000
0.0 0.0 0.0 0.0 0.0 0.0 0.0 0.0
0.0 0.0 0.0 0.0 0.0 0.0 0.0

fc_MatMul_W f4 [15, 10]
00000000: 5f62 39bf 14d2 a23f b590 793e 0128 69bf
00000010: 76e4 8f3f e3ef 2f3f 3d82 5d3f 5726 64bf
00000020: 4f58 093f 4f8e 7ebf c326 6cbf f81d 863f
00000030: 2f63 9abf 8cd9 8f3f 4fd1 5dbf 2679 553f
00000040: b9b6 8fbe db6f cbbf 750d 963f 0e8e 0a3f
00000050: 6e7a 543f d5cc 91be 02db 9f3f 2d13 8c3f
00000060: 40a2 b1be ffa8 76bf 209b 83bf 1470 503f
00000070: a47a 153f 053a 8ebf 2602 db3f afaa f3be
00000080: bd16 fc3e bf9a 9ebf 1be5 1cbf edca 0f3d
00000090: 98b0 f33f ebcf 3fbf aaee 2cbf 9eec bebd
000000a0: 14e6 763e 6e51 f53e 7762 573f a5b5 dbbf
000000b0: ed3e d1bf c6ee 1cbf a27f 483f 03cc 733e
000000c0: 3d5f 4b3f b1c3 703d b12f cb3e 8a1c cbbf
000000d0: 65cb 4abf dc7f a6bc 14ec edbf 4ce2 b33f
000000e0: e5fe bfbf 8474 283f 8d1d e3bd ddce 853f
000000f0: b719 c43e 539f 2abf 14d7 003f d6bd 353f
00000100: bbde 93bf 78eb 8abf 52ce a53f 2d44 7abf
00000110: f74a b83f f34f 6ebf b1c5 bcbf 9312 963f
00000120: 60a6 863f 59fc 6c3f 6c27 7cbf db8a 963f
00000130: 0c11 753f 0bec 49bf 6abe 1fbe a239 5dbf
00000140: 4f53 1b3f 0550 07bf 63f0 c03e 9774 a73e
00000150: de69 a4bf b60d 963f 094d 97bf 10aa 89bf
00000160: fed8 ae3f 04e3 b6bf 7d1e 843f 3a85 a23f
00000170: 0091 96bf 052c 7abe 4ca4 81bf ef26 be3f
00000180: 9d85 7d3f 31fa 803f 38fd 92bf 3145 3cbf
00000190: 4c4d 183f a727 c23f b0e1 a63f 20c1 af3f
000001a0: d73b 0cbf acd9 6fbe aaea c7bf b041 103e
000001b0: ea70 c3bf dbc2 ac3d 0f83 6b3f cef0 e1bf
000001c0: d210 edbf 81ce 813f d200 903f 2125 643f
000001d0: 4d2e bb3e a031 16bd c942 6fbd 35be 3cbf
000001e0: 9cd4 eb3e 5509 a1bf 036d 873f b50c f03e
000001f0: be0c 083f 41e7 a9bf f351 a73e 69ed c0bf
00000200: 9662 6abe 4922 793f b853 493f c0cd 82bf
00000210: 7a3a 903f 65a3 233f a442 8fbd 42fd 9a3f
00000220: 1dd0 813f dfcb 41bf 4f4c 83bf edf6 9cbf
00000230: 7d3a a73f cecc b6bf f09e a3be 2a69 80bf
00000240: 51ad 7a3e 2fb1 963f c00f 5bbd 9367 07c0
00000250: 6317 553f 270a aa3f
-0.7241573 1.2720361 0.24371608 -0.91076666 1.1241596 0.68725413 0.8652685 -0.89121
0.53650373 -0.99435896 -0.92246646 1.0477896 -1.2061518 1.1238265 -0.86647505 0.8338798
-0.28069094 -1.589351 1.1722857 0.5412301 0.8299931 -0.28476587 1.2488711 1.0943352
-0.346941 -0.9635162 -1.0281715 0.8142102 0.5839026 -1.1111456 1.7110031 -0.4759116
0.49236098 -1.2390975 -0.6128709 0.035105634 1.9038267 -0.7492663 -0.6755167 -0.09322475
0.24111205 0.47913688 0.8413462 -1.7164809 -1.6347328 -0.6130184 0.7831975 0.23808293
0.794422 0.058780376 0.39684823 -1.5868084 -0.79216605 -0.02032464 -1.858767 1.4053435
-1.4999663 0.6580279 -0.11089621 1.0453755 0.3830087 -0.6664936 0.50328183 0.7099279
-1.1552347 -1.0853109 1.2953589 -0.9776028 1.4397877 -0.9309074 -1.4747831 1.1724418
1.0519524 0.9257255 -0.98497653 1.1761125 0.95729136 -0.788758 -0.15599981 -0.86416066
0.60673994 -0.52856475 0.376834 0.32706138 -1.2844808 1.1722934 -1.1820384 -1.0755024
1.3659971 -1.428803 1.0321804 1.2696908 -1.1763 -0.24430855 -1.0128264 1.4855632
0.99032 1.0076352 -1.1483526 -0.7354308 0.59492946 1.5168351 1.3037624 1.3730812
-0.5477881 -0.23422879 -1.5618489 0.14087558 -1.5268834 0.08435603 0.91996855 -1.7651613
-1.8520758 1.0141145 1.125025 0.89119154 0.36558762 -0.03666842 -0.0584133 -0.7372773
0.46060646 -1.2580973 1.0580143 0.46884695 0.53144443 -1.3273698 0.3267971 -1.5072452
-0.2288917 0.9731794 0.7864337 -1.021904 1.1267846 0.63921195 -0.069951326 1.2108538
1.0141636 -0.7570171 -1.0257663 -1.2262856 1.3064724 -1.4281251 -0.31957197 -1.0032094
0.24480177 1.1772822 -0.053481817 -2.1156967 0.8323881 1.3284348

fc_Add_B f4 [10]
00000000: 8104 3dbf 1fd8 ea3c 6002 203e cddc 713e
00000010: f238 f3bd 40f9 e63e e5c4 9bbe cd3d 803e
00000020: cc33 26be aa79 1abd
-0.73835 0.028667508 0.15625906 0.23619385 -0.11876096 0.45112038 -0.30423656 0.2504715
-0.16230696 -0.037713684
