MNIST_LSTM_GRU/mnist/MNIST_GRU2net.onnx (onnx, 39764 bytes, 6 tensors)

gru_W f4 [1, 45, 196]
-2.7755411e-14 4.392498e-07 0.02745274 0.008090023 0.0036573089 0.12007383 -0.0144354785 0.17879473
0.014262533 0.21875972 0.23718177 0.047970396 -0.1653772 -0.12212318 -0.09155564 -0.13281022
-0.20700009 -0.16483502 -0.078772545 0.04240365 0.24041408 0.1816661 0.22273597 0.47573388
0.31988266 0.07535572 0.027024372 5.6527534e-07 3.8355668e-13 2.8614239e-05 0.018350778 -0.014003751
-0.18236035 0.10684498 0.00035100372 0.1009417 0.21774943 0.022141306 -0.0077910395 -0.13989264
-0.16314873 -0.008442112 0.0647914 -0.1563525 -0.14290339 -0.29255474 -0.12107695 0.049678855
0.005318114 -0.02995525 0.10186505 0.17078316 -0.011157296 -0.04267794 0.0074698115 3.0276644e-06
2.981172e-07 -4.1918713e-05 -0.0053739874 -0.067674 0.03692305 0.11460915 0.14119995 -0.054764908
0.030342583 0.10434827 -0.031063635 -0.20429897 -0.14378454 -0.23907122 -0.25263992 -0.1518167
-0.29098985 -0.38009802 -0.4956355 -0.42569068 -0.39730877 -0.30586487 -0.18723643 -0.049594995
-0.040932506 -0.107854806 -0.02728618 -0.00013985747 2.3628382e-07 0.00032346582 -0.000840238 -0.09085473
-0.076485835 -0.14956005 0.0013005649 -0.051932942 -0.025381017 -0.17868611 -0.4803665 -0.41449836
-0.3558738 -0.41642442 -0.40352744 -0.14947915 -0.40742937 -0.2530719 -0.1701152 -0.26105136
-0.37378308 -0.30922234 -0.25357127 -0.2569992 -0.2262455 -0.06730378 0.01224273 -0.0007459446
0.00020310978 -0.00015101745 0.01568038 -0.03621328 -0.10038737 -0.15047807 -0.015153828 -0.15630999
-0.25192255 -0.527052 -0.50221705 -0.48090658 -0.4282517 -0.31328562 -0.13172016 -0.051696576
0.0019121667 -0.083724104 -0.008360882 -0.18295053 -0.17319395 -0.12646444 -0.2343858 -0.049818806
-0.021569166 0.030601718 0.036013637 -0.0036798534 2.6762531e-15 0.05445181 -0.00047608462 -0.045754652
-0.025505735 -0.040023346 0.037511457 -0.039832067 -0.27422434 -0.41825128 -0.45417643 -0.38428676
-0.1821484 -0.15360573 0.14019397 0.111447275 0.0109166475 0.19070326 -0.09269255 -0.14955153
-0.04613464 -0.08015694 0.007046121 0.27240747 0.22134058 0.15234268 -0.014088071 -0.009372883
-5.0391045e-26 0.00061570085 -0.0023714073 -0.0023289009 -0.05363128 -0.046831645 0.043862917 -0.14041625
-0.16060545 -0.072261594 -0.12134699 -0.2646545 -0.28656116 -0.036979087 0.14816603 0.039146464
-0.13343269 -0.13862094 -0.16487937 -0.12935506 -0.17649023 -0.024741832 0.19046144 0.46001574
0.5317225 0.19082989 0.025806785 -0.0081110485 3.743731e-15 5.6067006e-07 -0.009900253 -0.14317696
-0.027087806 -0.18403913 -0.08653129 0.12001083 -0.15840065 -0.19420296 -0.5033813 -0.19230177
0.030814167 0.29943067 0.24407071 0.23600462 0.15081272 0.03545431 0.0054880613 -0.10586303
-0.11649057 -0.2175105 -0.11893273 -0.1620595 -0.29997474 -0.24399048 -0.053559244 -0.00067214516
0.004659793 -0.002772856 -0.009815081 -0.09045154 -0.07182448 -0.053013057 -0.0732027 -0.111500345
-0.11708217 -0.26893663 -0.19001292 0.11751472 0.21798956 0.07964833 0.1948083 0.08552879
0.110032864 0.066410914 -0.1398787 -0.019194838 -0.051371846 -0.016308632 -0.14030623 -0.28129926
-0.3144312 -0.083068535 0.0065563666 -3.116518e-05 3.8466817e-07 -0.00051246537 -0.0019916066 -0.035971604
00000000: 9fff f9a8 08d2 eb34 92e4 e03c 048c 043c
00000010: 76af 6f3b 45e9 f53d c982 6cbc f715 373e
00000020: 66ad 693c 8c02 603e c7df 723e 9b7c 443d
00000030: a458 29be b81b fabd 8681 bbbd 67ff 07be
00000040: d5f7 53be 83ca 28be 8053 a1bd 73af 2d3d
00000050: 1c2f 763e ae06 3a3e e614 643e 6493 f33e
00000060: a9c7 a33e 1a54 9a3d 3762 dd3c 6dbd 1735
00000070: 58ec d72a 9c08 f037 5f54 963c fd6f 65bc
00000080: acbc 3abe 8ad1 da3d ec06 b839 86ba ce3d
00000090: b5f9 5e3e af61 b53c fa4b ffbb 0440 0fbe
000000a0: 7610 27be c950 0abc 5bb1 843d df1a 20be
000000b0: 4455 12be bcc9 95be 31f7 f7bd 0e7c 4b3d
000000c0: 9343 ae3b b664 f5bc a09e d03d c8e1 2e3e
000000d0: 17cd 36bc 10cf 2ebd 52c5 f43b e12e 4b36
000000e0: ea0c a034 e0d1 2fb8 4618 b0bb ab98 8abd
000000f0: a03c 173d 34b8 ea3d b896 103e 2b51 60bd
00000100: 0291 f83c 8cb4 d53d 2a79 febc c033 51be
00000110: 413c 13be 16cf 74be 055a 81be d675 1bbe
00000120: 9ffc 94be 359c c2be f0c3 fdbe 21f4 d9be
00000130: 0e6c cbbe 529a 9cbe e8ba 3fbe 1f24 4bbd
00000140: d8a8 27bd fbe2 dcbd 4487 dfbc b4a6 12b9
00000150: 34b5 7d34 d996 a939 6b43 5cba 0b12 babd
00000160: 9ba4 9cbd 4526 19be b777 aa3a a3b7 54bd
00000170: daeb cfbc 7ef9 36be 99f2 f5be 2139 d4be
00000180: 1735 b6be 9535 d5be 269b cebe 1011 19be
00000190: 959a d0be a492 81be ae32 2ebe 86a8 85be
000001a0: 7f60 bfbe 6452 9ebe 18d4 81be 6695 83be
000001b0: e6ac 67be 90d6 89bd bb95 483c 7f8b 43ba
000001c0: def9 5439 705a 1eb9 2474 803c 6054 14bd
000001d0: e597 cdbd ec16 1abe c347 78bc ba0f 20be
000001e0: fefb 80be e1ec 06bf 4c91 00bf 6339 f6be
000001f0: cf43 dbbe f966 a0be a6e1 06be cabf 53bd
00000200: aba1 fa3a 8b77 abbd 15fc 08bc 6257 3bbe
00000210: c159 31be e57f 01be d502 70be ce0e 4cbd
00000220: d2b1 b0bc 74b0 fa3c 0983 133d b229 71bb
00000230: 28d8 4027 dc08 5f3d ff9a f9b9 3b69 3bbd
00000240: 67f1 d0bc 85ef 23bd 9da5 193d f326 23bd
00000250: 2267 8cbe 0825 d6be d089 e8be 3cc1 c4be
00000260: 1c85 3abe d24a 1dbe 028f 0f3e 783e e43d
00000270: bddb 323c b747 433e 97d5 bdbd 0924 19be
00000280: adf7 3cbd 5229 a4bd 26e3 e63b fe78 8b3e
00000290: 1ba7 623e b8ff 1b3e a7d1 66bc b890 19bc
000002a0: 3d86 7995 fc66 213a 9d69 1bbb 79a0 18bb
000002b0: 79ac 5bbd 8ad2 3fbd 9aa9 333d 47c9 0fbe
000002c0: c175 24be e3fd 93bd c584 f8bd cb80 87be
000002d0: 25b8 92be 6277 17bd d6b8 173e 0b58 203d
000002e0: 94a2 08be a6f2 0dbe 23d6 28be a775 04be
000002f0: dbb9 34be 62af cabc 5308 433e 2f87 eb3e
00000300: f71e 083f e968 433e c068 d33c 34e4 04bc
00000310: d3e1 8627 f480 1635 ac34 22bc fb9c 12be
00000320: 3fe7 ddbc c174 3cbe 5137 b1bd 3dc8 f53d
00000330: c833 22be 24dd 46be 99dd 00bf c1ea 44be
00000340: fe6d fc3c fa4e 993e aced 793e 32ab 713e
00000350: a66e 1a3e 8a38 113d 32d5 b33b b7ce d8bd
00000360: 9c92 eebd 13bb 5ebe 0193 f3bd edf2 25be
00000370: 4a96 99be a4d8 79be f060 5bbd e632 30ba
00000380: 2db1 983b ceb8 35bb 6fcf 20bc a83e b9bd
00000390: b718 93bd 3824 59bd 4ceb 95bd 4b5a e4bd
000003a0: c7c8 efbd 10b2 89be bf92 42be 8fab f03d
000003b0: a838 5f3e aa1e a33d d47b 473e b829 af3d
000003c0: e958 e13d 7202 883d 5d3c 0fbe 7e3e 9dbc
000003d0: 496b 52bd ae99 85bc 70ac 0fbe 7506 90be
000003e0: 20fd a0be d61f aabd cad6 d63b 5bb7 02b8
000003f0: 6484 ce34 f856 06ba 9d85 02bb f656 13bd

gru_R f4 [1, 45, 15]
0.54924935 0.034533113 0.14842923 0.028000401 -0.001649771 1.231873 -1.229054 0.051217817
-0.5363749 0.5080431 0.5638184 -0.026703635 0.22527196 -0.094503425 -0.14008237 0.7123118
-0.25935665 0.40579262 0.42032632 0.721126 -0.8069824 0.6100803 0.25905535 -0.3340363
0.20139264 0.041495968 -0.23514965 -0.47961822 0.38931215 -0.10679443 -0.07395636 0.41209018
0.1537281 0.036306676 0.0073032347 -0.79358035 0.40255785 0.36058837 0.4649937 -0.39903143
-0.15897608 -0.3127817 -0.08859867 0.15612917 -0.7431845 -0.21761514 -0.22144532 0.2902252
-0.053443708 0.20152698 -0.09664904 -1.4066565 -0.6385043 0.06460975 0.82751364 1.0221218
-0.08436068 -0.021090867 0.32286814 -0.07643222 0.09351545 -0.08490901 0.041986432 -1.3312232
-0.8765423 0.5063977 -0.21919262 0.8148899 0.33092168 0.22432004 0.07684447 0.8662061
-0.50729835 0.3444489 -1.2976449 -0.62263024 0.63906497 0.29893032 0.23497382 0.9951505
-0.20660049 -0.26083526 0.20765924 -0.90950024 -0.44300345 0.5078796 -0.3370524 0.29212224
0.18901919 0.7722388 0.3170689 0.121092744 0.11118657 0.14876999 -0.19222784 -0.53069884
-0.05252067 0.29863682 0.2825728 0.826788 -0.20327018 0.4629609 0.042530395 -0.5006487
-0.13164037 -0.68741727 -0.39392152 0.2871431 0.2318163 -0.20362984 -0.2697494 -0.23487525
-0.36635596 -0.39635614 0.31699178 -0.070877105 -0.64232385 -0.5144584 0.45790574 -0.06832347
0.015175966 0.5162708 -0.13291813 0.028745921 0.06384007 -0.28269565 -0.76500535 -0.013401478
0.6420464 0.12347174 0.28739545 0.16402611 0.67404956 -0.14737678 0.15341797 0.34199777
0.18975021 0.114884436 -0.003560731 0.009719941 -0.72827125 0.17994973 0.048780046 -0.2533783
-0.50463265 0.83851814 -0.44696143 0.4764342 1.3634198 0.27489355 -0.020986257 -0.4310368
0.21143563 0.33094728 -0.28486285 -0.4130044 -0.15957429 -0.63286984 -0.40363225 0.65920466
0.45182076 -0.6175419 -1.1041987 0.44613025 -0.030620372 0.6021745 -0.14372504 -0.30512103
0.2970163 0.85953677 -0.5093761 -0.34470516 -0.07979428 -0.12537825 -0.7618746 0.84009844
0.080376744 0.093391724 0.25723678 -0.15104342 -0.32666853 0.22059916 0.10444855 -0.4109954
0.35937643 0.59933525 -0.009670466 0.65536004 -1.3335228 0.32454628 -0.65514505 -0.31642315
0.32254952 0.047521837 0.96030444 -0.037681825 -0.30135694 -0.24383569 -0.2550488 0.0789323
0.7974909 -0.2991814 0.35968378 -0.12459015 -0.31195822 -0.087422855 0.0534808 0.19490552
0.13342357 0.304633 0.17636773 0.06555892 0.47109476 -0.21104419 0.4934371 0.49199122
-0.04676007 0.23376563 -0.8186654 -0.86709136 -0.095130414 -0.57039255 0.6037096 0.050395295
0.30563673 1.1309516 0.7355886 -0.29118773 0.47130665 0.450435 -0.2724864 -0.19205993
0.16370769 -0.61134255 0.013075363 -0.25040057 -0.16439922 -0.045968473 0.031172497 -0.09810759
-1.2990949 -1.0244251 -0.056187328 -0.401553 0.3070365 0.008234872 0.33897057 -1.110626
-0.2749688 0.098331295 0.07027293 -0.5711715 0.11104846 -0.26011416 0.0057130987 -0.108523004
00000000: 9b9b 0c3f 9872 0d3d d5fd 173e 1961 e53c
00000010: 213d d8ba 04ae 9d3f a451 9dbf c6c9 513d
00000020: de4f 09bf 1d0f 023f 6756 103f 95c1 dabc
00000030: b1ad 663e 038b c1bd c171 0fbe 115a 363f
00000040: 65ca 84be 0dc4 cf3e 0335 d73e b79b 383f
00000050: 6696 4ebf 392e 1c3f e7a2 843e ce06 abbe
00000060: df39 4e3e adf7 293d 12cb 70be 8590 f5be
00000070: ec53 c73e 0ab7 dabd 6f76 97bd 7cfd d23e
00000080: e66a 1d3e 4fb6 143d f94f ef3b 1528 4bbf
00000090: 101c ce3e 0a9f b83e a713 ee3e d94d ccbe
000000a0: a0ca 22be ec24 a0be 3873 b5bd 53e0 1f3e
000000b0: 5741 3ebf 81d6 5ebe 90c2 62be 6698 943e
000000c0: cae7 5abd 175d 4e3e efef c5bd 520d b4bf
000000d0: 0575 23bf 1e52 843d efd7 533f e3d4 823f
000000e0: 4bc5 acbd c1c6 acbc f94e a53e 7f88 9cbd
000000f0: 0785 bf3d c6e4 adbd f7f9 2b3d 8665 aabf
00000100: 1465 60bf 48a3 013f 0874 60be a09c 503f
00000110: 916e a93e 27b4 653e a260 9d3d afbf 5d3f
00000120: 4ede 01bf 9b5b b03e 3a19 a6bf b264 1fbf
00000130: c399 233f 650d 993e fa9c 703e 2fc2 7e3f
00000140: 148f 53be 338c 85be a0a4 543e 02d5 68bf
00000150: 59d1 e2be 6604 023f 2292 acbe 0c91 953e
00000160: 3f8e 413e 71b1 453f db56 a23e 79ff f73d
00000170: c9b5 e33d 2957 183e 60d7 44be e1db 07bf
00000180: ea1f 57bd ede6 983e 62ad 903e 61a8 533f
00000190: 0f26 50be 3609 ed3e 5a34 2e3d 832a 00bf
000001a0: bccc 06be 94fa 2fbf 15b0 c9be 6c04 933e
000001b0: 4161 6d3e 5784 50be 981c 8abe 2383 70be
000001c0: 0293 bbbe 31ef cabe bf4c a23e 0428 91bd
000001d0: 566f 24bf 8cb3 03bf 9f72 ea3e 2ded 8bbd
000001e0: 9da4 783c 532a 043f b11b 08be 917c eb3c
000001f0: 95be 823d 7cbd 90be 64d7 43bf df91 5bbc
00000200: 275d 243f c0de fc3d 7f25 933e 76f6 273e
00000210: 838e 2c3f f0e9 16be 9a19 1d3e 551a af3e
00000220: e14d 423e 8848 eb3d 275b 69bb 6340 1f3c
00000230: fc6f 3abf be44 383e 96cd 473d cdba 81be
00000240: 9b2f 01bf 20a9 563f 21d8 e4be 2fef f33e
00000250: 8a84 ae3f d9be 8c3e 5feb abbc dbb0 dcbe
00000260: 9582 583e ec71 a93e 8bd9 91be 5075 d3be
00000270: 7167 23be c203 22bf e3a8 cebe a3c1 283f
00000280: 0d55 e73e 3a17 1ebf 6256 8dbf 2f6b e43e
00000290: 93d7 fabc 1c28 1a3f a82c 13be d338 9cbe
000002a0: 8512 983e 9a0a 5c3f 7966 02bf 327d b0be
000002b0: 2f6b a3bd 2863 00be 370a 43bf b110 573f
000002c0: 909c a43d 2944 bf3d 8ab4 833e 20ab 1abe
000002d0: 1941 a7be bfe4 613e 1fe9 d53d fd6d d2be
000002e0: 3000 b83e 096e 193f e070 1ebc adc5 273f
000002f0: e0b0 aabf ee2a a63e 96b7 27bf 3702 a2be
00000300: 3625 a53e 42a6 423d 83d6 753f 4258 1abd
00000310: 754b 9abe 10b0 79be c295 82be 42a7 a13d
00000320: 5d28 4c3f 4e2e 99be 7928 b83e 1f29 ffbd
00000330: fdb8 9fbe c10a b3bd af0e 5b3d 5095 473e
00000340: 30a0 083e dbf8 9b3e be99 343e c143 863d
00000350: 5533 f13e f81b 58be caa3 fc3e 46e6 fb3e
00000360: 7d87 3fbd 4260 6f3e 0e94 51bf b3f9 5dbf
00000370: bcd3 c2bd 3f05 12bf b68c 1a3f 4c6b 4e3d
00000380: 6b7c 9c3e 06c3 903f 894f 3c3f 8f16 95be
00000390: 1b4f f13e 6b9f e63e 5683 8bbe 5cab 44be
000003a0: fda2 273e f280 1cbf 0c3a 563c 8134 80be
000003b0: 4558 28be 7049 3cbd 775d ff3c a2ec c8bd
000003c0: be48 a6bf 5d20 83bf af24 66bd 5b98 cdbe
000003d0: e333 9d3e 8eeb 063c 8d8d ad3e fe28 8ebf
000003e0: b6c8 8cbe eb61 c93d 41eb 8f3d 4c38 12bf
000003f0: 606d e33d af2d 85be f234 bb3b 4f41 debd

gru_B f4 [1, 90]
-0.18216227 0.3198208 -0.45478684 -0.43264005 -1.0900403 -0.019794364 0.5850675 -0.007954667
-0.20320562 -0.22589323 -0.045494758 0.51262903 0.07615791 0.12822615 -0.26939452 0.6303791
0.17631571 0.27481362 0.11095292 0.5781964 0.24349053 -0.24958792 0.11895065 0.21415724
0.00038120963 0.09430817 -0.12061656 0.019348389 0.5714353 0.063528575 0.12872471 0.07526624
0.03357266 -0.14524916 -0.761922 0.27462122 0.100199424 0.228408 0.11382336 0.085299976
0.05357572 0.47085994 0.016904084 -0.54203385 -0.32890797 0.0 0.0 0.0
0.0 0.0 0.0 0.0 0.0 0.0 0.0 0.0
0.0 0.0 0.0 0.0 0.0 0.0 0.0 0.0
0.0 0.0 0.0 0.0 0.0 0.0 0.0 0.0
0.0 0.0 0.0 0.0 0.0 0.0 0.0 0.0
0.0 0.0 0.0 0.0 0.0 0.0 0.0 0.0
0.0 0.0
00000000: bf88 3abe 8dbf a33e d2d9 e8be ff82 ddbe
00000010: 7186 8bbf ca27 a2bc fcc6 153f 4b54 02bc
00000020: 2215 50be 8e50 67be b658 3abd a83b 033f
00000030: aef8 9b3d b74d 033e 14ee 89be 8660 213f
00000040: 1b8c 343e 5fb4 8c3e 493b e33d ae04 143f
00000050: 9555 793e fa93 7fbe 669c f33d 094c 5b3e
00000060: 17dd c739 a424 c13d d105 f7bd 8380 9e3c
00000070: 9549 123f 451b 823d 69d0 033e 3025 9a3d
00000080: 7c83 093d 32bc 14be 520d 43bf 279b 8c3e
00000090: 5b35 cd3d c9e3 693e 391c e93d c1b1 ae3d
000000a0: 3772 5b3d 8e14 f13e 6f7a 8a3c bbc2 0abf
000000b0: a066 a8be 0000 0000 0000 0000 0000 0000
000000c0: 0000 0000 0000 0000 0000 0000 0000 0000
000000d0: 0000 0000 0000 0000 0000 0000 0000 0000
000000e0: 0000 0000 0000 0000 0000 0000 0000 0000
000000f0: 0000 0000 0000 0000 0000 0000 0000 0000
00000100: 0000 0000 0000 0000 0000 0000 0000 0000
00000110: 0000 0000 0000 0000 0000 0000 0000 0000
00000120: 0000 0000 0000 0000 0000 0000 0000 0000
00000130: 0000 0000 0000 0000 0000 0000 0000 0000
00000140: 0000 0000 0000 0000 0000 0000 0000 0000
00000150: 0000 0000 0000 0000 0000 0000 0000 0000
00000160: 0000 0000 0000 0000

gru_initial_h f4 [1, 1, 15]
0.0 0.0 0.0 0.0 0.0 0.0 0.0 0.0
0.0 0.0 0.0 0.0 0.0 0.0 0.0
00000000: 0000 0000 0000 0000 0000 0000 0000 0000
00000010: 0000 0000 0000 0000 0000 0000 0000 0000
00000020: 0000 0000 0000 0000 0000 0000 0000 0000
00000030: 0000 0000 0000 0000 0000 0000

fc_MatMul_W f4 [15, 10]
0.06916689 -1.3013165 1.038928 -1.1414613 0.9609189 1.2845619 0.43635976 -0.87011164
-1.2905635 0.58240676 -1.8105518 0.15439768 0.1495483 -1.043984 0.5248695 1.2864915
0.7383238 -1.346031 1.119024 -0.54505146 0.5106569 1.5585043 2.2370546 0.5029377
-0.57629985 -0.673873 -0.600396 -1.201986 0.5159261 -1.5345345 -1.2502537 1.0302626
-1.9764615 1.3698575 0.636199 0.5460936 -1.6096476 -0.14218336 0.017739357 1.0228305
-0.34610134 -1.7833636 1.0495625 1.1590824 -2.0818925 0.6078727 -1.644833 1.6494776
0.342764 0.22934178 1.4023405 0.62195337 0.9510046 0.4301584 -0.5155498 -0.4522583
2.2087243 -0.69263244 -0.77606916 -0.99120766 -0.39562762 -1.0454206 -1.6314945 1.8728838
-0.40022746 1.7723374 1.4916816 -1.0761261 -1.4391656 0.16735038 -1.5899422 0.6360805
0.38213545 0.6681603 -1.1530999 0.8903807 0.46288082 -0.013595935 1.3345226 -1.6038116
-1.1097307 0.6632516 -0.2907754 -0.9566578 0.8783353 -0.8732 -0.4862623 1.2671497
-0.31211367 0.33905745 1.0094004 -1.475252 -1.3681324 -0.33506644 -1.6249487 0.69265443
1.0748187 -1.7638454 1.2542108 2.2783985 1.7329692 -0.99098986 -0.24979098 -0.78148377
0.71474195 -0.27698684 -0.39929044 1.427868 -0.19724423 -0.8368907 -1.1623691 1.1532017
1.1634284 1.1595608 -1.7942455 -0.047779445 -0.75604707 1.4702818 -1.0290474 0.900767
0.19699608 2.145603 -0.32349455 -1.0084314 -0.7799213 0.88952035 0.066966355 -0.19281867
-0.49340928 -1.1941706 1.2377243 -0.22178133 0.84349835 0.8944767 -1.4472558 0.5880192
-1.2229187 -1.5021443 1.4006226 -0.8422664 -0.47125772 -0.21641612 1.1526469 0.056046158
-1.0571767 -2.3912883 1.6095035 0.27471402 0.6887321 1.0703577
00000000: 5fa7 8d3d 8a91 a6bf 98fb 843f 671b 92bf
00000010: c8fe 753f 866c a43f 8c6a df3e a3bf 5ebf
00000020: 2f31 a5bf 9c18 153f 29c0 e7bf 6d1a 1e3e
00000030: 3123 193e 45a1 85bf d95d 063f c1ab a43f
00000040: ca02 3d3f be4a acbf 2e3c 8f3f 7e88 0bbf
00000050: 69ba 023f 127d c73f e72b 0f40 86c0 003f
00000060: 6388 13bf f182 2cbf 8db3 19bf adda 99bf
00000070: bc13 043f a06b c4bf 5008 a0bf a5df 833f
00000080: b1fc fcbf 7e57 af3f f0dd 223f cacc 0b3f
00000090: ef08 cebf 8498 11be 2152 913c 1cec 823f
000000a0: 3234 b1be 4245 e4bf 1058 863f d05c 943f
000000b0: ba3d 05c0 8c9d 1b3f e389 d2bf 1522 d33f
000000c0: c37e af3e 92d8 6a3e e57f b33f 5638 1f3f
000000d0: 0a75 733f b93d dc3e 12fb 03bf 668e e7be
000000e0: bd5b 0d40 5c50 31bf 78ac 46bf c9bf 7dbf
000000f0: b48f cabe 58d0 85bf d0d4 d0bf a8ba ef3f
00000100: 9dea ccbe f4db e23f 6cef be3f 80be 89bf
00000110: 9436 b8bf e65d 2b3e 3a83 cbbf 2cd6 223f
00000120: 42a7 c33e 8e0c 2b3f c798 93bf fdef 633f
00000130: b7fe ec3e 7cc1 5ebc a3d1 aa3f b349 cdbf
00000140: a80b 8ebf dbca 293f 83e0 94be 87e7 74bf
00000150: 95da 603f 098a 5fbf 5ff7 f8be f631 a23f
00000160: 5dcd 9fbe f098 ad3e 0834 813f 0fd5 bcbf
00000170: f61e afbf d48d abbe 52fe cfbf cd51 313f
00000180: a993 893f b0c5 e1bf fb89 a03f 48d1 1140
00000190: efd1 dd3f 83b1 7dbf 35c9 7fbe 520f 48bf
000001a0: 54f9 363f 38d1 8dbe cc6f ccbe 61c4 b63f
000001b0: 64fa 49be 783e 56bf 83c8 94bf 1d9c 933f
000001c0: 39eb 943f 7d6c 943f d6a9 e5bf 61b4 43bd
000001d0: 4d8c 41bf 3232 bc3f d3b7 83bf ab98 663f
000001e0: 57b9 493e 8f51 0940 14a1 a5be 4814 81bf
000001f0: eca8 47bf 9bb7 633f a825 893d 4272 45be
00000200: 24a0 fcbe 95da 98bf c06d 9e3f a51a 63be
00000210: 82ef 573f 6dfc 643f ae3f b9bf 6d88 163f
00000220: 9a88 9cbf 4446 c0bf 9a47 b33f c59e 57bf
00000230: b148 f1be 309c 5dbe ef89 933f a890 653d
00000240: 9151 87bf de0a 19c0 3604 ce3f 51a7 8c3e
00000250: bf50 303f 7b01 893f

fc_Add_B f4 [10]
0.0779974 0.068717755 -0.035862613 -0.009909798 0.22692701 0.33259684 -0.67309254 0.22227482
-0.6513668 0.3314606
00000000: 1abd 9f3d e5bb 8c3d ade4 12bd b55c 22bc
00000010: 8e5f 683e 224a aa3e cb4f 2cbf 039c 633e
00000020: f9bf 26bf 34b5 a93e
