StarV/util/data/nets/CAV2020_MNIST_ConvNet/onnx/Small_ConvNet.onnx (onnx, 89427 bytes, 20 tensors)

conv_1_W f4 [8, 1, 3, 3]
000000 f8 11 54 3e 62 1b 40 3e 21 c1 54 bd 0b d3 b8 3d
       0.2070998 0.18760446 -0.051941995 0.09024628
000010 75 83 35 be 7f 56 88 be 93 25 2d be 54 bf 8b 3c
       -0.17725928 -0.2662849 -0.16908865 0.017059006
000020 2c 8f 62 be fb d0 5b 3e d8 5e 0a be 5e 61 bc 3d
       -0.22124928 0.21466438 -0.13512743 0.09198259
000030 37 26 6a 3d b7 86 af 3e e5 2c d1 bd bc f9 81 be
       0.05716535 0.34282467 -0.10213641 -0.25385845
000040 8f 2c f3 bd be b9 ef 3d d8 9a c8 bd 58 81 b0 3d
       -0.11873733 0.117053494 -0.09795159 0.0861842
000050 22 b8 05 3e 40 2b 24 be f3 ee 48 be 8a 85 94 3e
       0.13058522 -0.16032124 -0.19622402 0.29008132
000060 5e ab b2 bd 1f ba 59 3b cc 9d 01 3e cb 9a 06 3e
       -0.08724092 0.003322251 0.12657851 0.13144986
000070 47 9e 76 be 44 58 f8 3c d6 ab 7b be 34 7f 0c be
       -0.24083816 0.030315526 -0.24577269 -0.13720399
000080 03 8a 5b 3e f1 31 52 3d a0 9e 76 3e 99 15 b6 3d
       0.21439366 0.05131716 0.24083948 0.08890838
000090 ac 72 1c be e2 05 d4 bd f6 86 5f be 0c 68 10 3e
       -0.15278119 -0.103526846 -0.21828827 0.1410219
0000a0 a8 cf 2b be c9 5e 87 be 48 81 a6 bd 51 cf 16 bd
       -0.16778433 -0.26439503 -0.08130127 -0.036818806
0000b0 11 c5 f5 3d af 92 8d be f2 33 4f bc e6 40 a8 be
       0.12000478 -0.27650973 -0.012646662 -0.32862014
0000c0 88 6d 1e 3e e5 34 13 be d2 0c 8b 3d 4f f2 63 be
       0.1547147 -0.14375646 0.06789555 -0.22260402
0000d0 d2 61 3d be 98 35 16 3e d1 15 a4 bd f7 c0 5a be
       -0.18494347 0.14668882 -0.08011974 -0.21362673
0000e0 53 b1 5b be 1c bd b8 bd e0 c8 c6 bd 98 f0 17 bd
       -0.21454363 -0.09020445 -0.097062826 -0.037094682
0000f0 43 ad 0d be 67 08 23 3e 3e ea 4a 3e 94 a6 5f be
       -0.13835625 0.15921174 0.19815919 -0.21840888
000100 0e c0 4d be 53 ee 89 bd d3 bd 88 3d 57 f9 b5 bd
       -0.20092794 -0.0673491 0.06676831 -0.088854484
000110 5b 0e 86 be 20 eb d6 3d 65 3d 95 3e 6c bd a7 3d
       -0.26182827 0.10494065 0.29148403 0.08190426

conv_1_B f4 [8]
000000 17 30 bf 2f 1a da 9a b1 1c 7f b7 b1 4e ad a3 b2
       3.4776867e-10 -4.506785e-09 -5.3404516e-09 -1.9054507e-08
000010 6a 61 5e 31 b7 36 27 32 c0 35 0a 32 6f 8c 91 31
       3.2360625e-09 9.73312e-09 8.0448785e-09 4.236021e-09

batchnorm_1_scale f4 [8]
000000 0d 33 7a 3f cc 05 5a 3f 62 a2 67 3f 2c 2a 83 3f
       0.9773415 0.85165095 0.9048215 1.0247245
000010 ba 68 7f 3f b2 84 84 3f ab 54 88 3f a5 d8 8d 3f
       0.99769175 1.0352995 1.0650839 1.108174

batchnorm_1_B f4 [8]
000000 38 d0 9d bc 31 55 f0 3c d2 70 b5 bc 00 c4 9d 3c
       -0.019264325 0.029337497 -0.022148523 0.0192585
000010 20 c5 d3 bc 1d 54 13 3d 7e cf e1 39 6a c0 e1 bc
       -0.025850832 0.03596889 0.00043069938 -0.02755757

batchnorm_1_mean f4 [8]
000000 67 4d b5 be af 32 af 3c c6 e5 8f 3e 9a ad e6 3e
       -0.35410616 0.021386473 0.2810499 0.45054322
000010 d9 8e 37 bf 38 25 84 bf 80 76 ff be 29 2b 63 be
       -0.71702343 -1.0323858 -0.49895096 -0.22184433

batchnorm_1_var f4 [8]
000000 2e af 8c 44 3d c2 a8 43 0c 34 14 44 9f ff e4 43
       1125.4744 337.5175 592.81323 457.99704
000010 c5 7e cd 44 c5 f5 c8 44 f7 85 90 44 1e db 5b 44
       1643.9615 1607.6803 1156.1864 879.4237

conv_2_W f4 [16, 8, 3, 3]
000000 85 e1 94 3d cb 5b 0e 3e cc f9 1b be 29 c6 bd 3d
       0.07269577 0.13902204 -0.15232009 0.09266312
000010 dc 43 ef bd 5a 22 b9 3d 52 f5 3e 3d 80 49 ad bc
       -0.11682865 0.09039755 0.046620674 -0.021153212
000020 78 82 d3 bb 83 e7 f5 bd 5f 60 3a 3d 33 3a 0f 3e
       -0.006454762 -0.12007048 0.045502063 0.13987045
000030 16 24 6a bd bf 7d 96 bd 29 fb 8d 3d 17 11 39 3e
       -0.05716332 -0.07348203 0.069326706 0.18072926
000040 ef 17 80 3d 5f d0 88 3d e5 5e af bc 8e 11 25 be
       0.06254565 0.06680369 -0.021407554 -0.16119978
000050 d1 37 35 bd ee 80 7d 3d 7a bd 5f bd 10 ec b3 3d
       -0.044242684 0.061890535 -0.05462406 0.0878526
000060 ee 33 08 bd fc 1b 44 3d ca 8f d9 bd bf 97 e2 3d
       -0.03325265 0.04787825 -0.10623129 0.110640995
000070 4b 1a 0e be 48 00 80 3a 17 f8 34 3e a9 9d 88 3e
       -0.13877217 0.0009765709 0.17672764 0.26682785
000080 d6 2b 9d 3d 1e 37 25 3c fc 22 6e bd 71 46 17 3e
       0.07674377 0.010083942 -0.058138832 0.14772965
000090 49 f7 c9 3d 32 44 4f bb 01 e5 d1 bd f3 14 69 3d
       0.09861619 -0.003162634 -0.10248757 0.056904744
0000a0 e3 04 0d 3e 2e f6 61 3c 1f 5a 16 3e 32 46 22 be
       0.13771395 0.013791604 0.14682816 -0.1584709
0000b0 23 58 a5 bd 4e a8 ba 3d 53 47 b0 3b 48 e4 8e 3d
       -0.08073451 0.09114133 0.0053795963 0.06977135
0000c0 e2 cc 1c be 4e 3d d6 3d a4 da 22 bd 11 66 9f 3c
       -0.15312532 0.10460912 -0.039759293 0.019457849
0000d0 3f 56 31 be f7 bd 49 3b fc f7 52 3d fa 8e c3 bc
       -0.17318057 0.0030783394 0.051506028 -0.023871887
0000e0 8a c0 00 be ab 2d a5 bc 97 38 cd bd d8 7d c9 bd
       -0.12573448 -0.020163378 -0.10020559 -0.09838456
0000f0 00 48 1c 3d 1b 5e 4c 3d ec b6 24 3c 91 71 94 bd
       0.038154602 0.049894433 0.010053378 -0.072482236
000100 cb 56 6a 3b ff df 05 3d 53 04 bb 3d e1 9a 28 3d
       0.00357573 0.032684322 0.09131684 0.04116333
000110 95 4a 06 bd c4 1e a6 3d 74 0f 31 3e 2a 13 25 3d
       -0.03278597 0.08111337 0.17291051 0.04030148
000120 48 25 f7 3c 35 ef 3d 3e 98 67 91 bd f9 04 7f bd
       0.030169144 0.18548281 -0.07099837 -0.0622606
000130 59 db 97 3d e7 53 42 3d b7 56 ac bd f7 00 f3 bb
       0.07414884 0.047443297 -0.08414977 -0.0074158865
000140 4d c1 1b be f4 2d 30 bb 98 21 db 3d 7c 1e 29 3e
       -0.15210457 -0.002688286 0.10699767 0.16515535
000150 ae cd 08 3e 74 7b 1d be d3 25 d1 3c 0d 4f 1c 3e
       0.1335971 -0.15379125 0.025530731 0.1526453
000160 cc fd 06 be 42 2e 20 3e 33 66 4b be 90 b0 b0 bd
       -0.13182753 0.15642646 -0.19863205 -0.086274266
000170 5f 26 38 3c 60 e0 88 bb 0b 97 36 bd 9c 73 28 bd
       0.011239617 -0.004177138 -0.04457764 -0.04112588
000180 28 c6 d5 bc d9 ca 16 3e 75 bc f9 3d e8 97 3f 3c
       -0.026095465 0.14725818 0.121941485 0.011693932
000190 b0 e1 c3 bd e1 a1 d1 bd 8f f8 46 3e 42 d4 2e be
       -0.09564531 -0.10235954 0.19430755 -0.17073157
0001a0 e6 4f 38 be 7b 4d 9a bd 9f ba 82 bb 62 e9 1e be
       -0.17999229 -0.075343095 -0.003989532 -0.15518716
0001b0 17 7c 34 3e de 95 0d 3e 31 ac 9e 3c a9 c7 1c 3e
       0.17625462 0.13826701 0.019369217 0.1531054
0001c0 70 08 da 3d 22 78 fd bb 81 a3 a6 3d b9 20 e4 bd
       0.106461406 -0.007735268 0.08136655 -0.11139054
0001d0 33 f5 0f be d9 85 9f 3d 73 9f d4 3c 9e f2 13 3e
       -0.1405838 0.07789201 0.025954938 0.1444802
0001e0 6f 4d 18 3e ee 4f 0c 3e 78 3b d6 bd 8e 7e b7 bd
       0.14873289 0.13702366 -0.104605615 -0.08959685
0001f0 66 19 f9 3d e3 35 f9 3d 82 e6 d7 bd 37 68 06 3d
       0.121630475 0.12168481 -0.10542013 0.03281423
000200 6d 57 71 3d 36 b1 9e 3d e6 60 d4 3d 3b 8e c2 3d
       0.058921266 0.07748644 0.103700444 0.094997846
000210 b2 62 f2 3d e9 09 c9 3d 9e 08 a8 bd 02 ec ff 3d
       0.11835231 0.09816343 -0.082047686 0.12496187
000220 37 23 08 3e 06 50 b5 3c 70 fa 95 3d 1e 53 7d 3c
       0.13294683 0.022132885 0.07323158 0.015461711
000230 f5 97 14 3e e6 55 f7 bd a0 64 57 be 48 ef 4b 3e
       0.14511092 -0.12076931 -0.21034479 0.19915497
000240 7a 49 97 3d 95 b7 1c bd 28 5d d3 3d 1e 10 6c be
       0.073870614 -0.038261015 0.103205025 -0.23053023
000250 4b 93 7e 3d 13 03 dc 3d ec 6c 94 bd 0b 2c 2d be
       0.06215219 0.10742774 -0.07247338 -0.16911332
000260 93 c1 a7 bd 1a 1f 19 bd 7e c0 f6 bc 79 8a d3 3d
       -0.08191218 -0.037383176 -0.030121084 0.10329146
000270 a8 02 73 bc 7e 51 e0 3d 6e a5 c9 bd da ff 51 bd
       -0.014832176 0.109530434 -0.09846006 -0.05126939
000280 62 c0 61 3d 65 b8 c8 3d b0 2a 3e 3d 7b 0f 97 3d
       0.05511511 0.098007955 0.04642743 0.073759995
000290 e4 07 c5 3d 66 8b f7 bc 55 61 42 be eb 9e 95 bd
       0.09620646 -0.030217838 -0.18982442 -0.07305702
0002a0 cb e1 7d 3d 3f 19 be bc e1 e0 0f bd 81 16 b0 bd
       0.06198291 -0.023205398 -0.03512657 -0.08598042
0002b0 34 a9 d1 3d 3f b0 1d 3d 99 91 55 bd 93 97 0f 3e
       0.10237351 0.03849816 -0.052140806 0.14022665
0002c0 09 9e 41 3e 88 2d f8 bd df 63 5e be 5c fe 5d bd
       0.18907942 -0.121180594 -0.21717785 -0.054197654
0002d0 34 ab 07 be bb da 1c bd 77 77 01 3e a6 ac d2 3d
       -0.13248903 -0.038294535 0.12643228 0.10286836
0002e0 96 31 2a be e6 12 05 be 53 43 0c be ba 37 f6 bd
       -0.16620478 -0.1299549 -0.13697557 -0.12022348
0002f0 6d 89 0e bd a9 28 85 bd 3f 13 2a 3d c2 da 1b bd
       -0.03479903 -0.06501896 0.04152226 -0.03805042
000300 26 2a 8c 3a 63 22 37 3c f3 66 0e 3e 3e e6 01 be
       0.0010693714 0.011177632 0.1390646 -0.12685487
000310 ac 51 a2 3d 8e ac 0d bd cb 37 1d 3d 16 74 34 3c
       0.07925734 -0.03458839 0.038383286 0.011014005
000320 b4 93 31 3e 41 46 6b be 09 fa 05 be 35 0e 57 3e
       0.173415 -0.22976018 -0.13083662 0.21001513
000330 1b ca 2a 3d 04 5d 37 be ee ca 03 bd d7 96 41 be
       0.04169665 -0.17906576 -0.03217595 -0.18905197
000340 2b 01 e6 bc 91 58 8e bd 80 a4 ef bd a5 0d 29 be
       -0.028076729 -0.069504865 -0.11701298 -0.16509111
000350 61 0d de 3d dd 76 f5 3d 3e d8 81 3d c5 31 c2 3d
       0.108423956 0.11985562 0.06340073 0.09482149
000360 ce 88 4e bb 5f 20 84 3d da 3a 8d 3d 56 85 5f 3e
       -0.0031514647 0.06451487 0.06895991 0.21828207
000370 f4 04 dd bd d5 0d 47 bd c4 2e ca bd f6 d1 cd bb
       -0.1079196 -0.048597176 -0.09872201 -0.006281133
000380 a8 9f 16 bc 5d 59 22 be 24 12 d7 bd 8e 7f 3d bd
       -0.009193338 -0.15854402 -0.10501507 -0.046264224
000390 69 f0 a4 3d 11 8d 8d 3d 35 5b 03 bb 6f b5 e8 3d
       0.08053667 0.06911672 -0.0020043377 0.11362731
0003a0 9d 2d ed 3d 20 ec 7c bd 75 bf 33 3e fa 14 9b bd
       0.11580966 -0.061748624 0.17553504 -0.0757236
0003b0 ad 9c ea bd 23 9f fa 3d b9 f8 51 bc 4c 46 95 3a
       -0.11455665 0.12237384 -0.012815648 0.0011388748
0003c0 dc 06 36 bd d4 47 c9 3d 35 9d 2d bd bb 3b b4 3d
       -0.044440135 0.09828153 -0.042386252 0.08800455
0003d0 97 20 e6 3c f2 65 bb bd 52 2e f1 3d f9 35 04 bd
       0.028091712 -0.09150304 0.11776413 -0.032278035
0003e0 51 f6 28 bd 10 7e b9 ba f9 a3 36 bd 2b c3 00 be
       -0.04125053 -0.001415195 -0.04458997 -0.1257445
0003f0 b7 4b 41 be 32 c1 1d be c5 4a 96 3d e8 0a 23 be
       -0.18876539 -0.1540573 0.0733848 -0.15922129

conv_2_B f4 [16]
000000 8a e2 83 32 c3 3a 3c 33 df 40 19 b1 0d fe 42 32
       1.5353425e-08 4.3825604e-08 -2.2301305e-09 1.1350051e-08
000010 77 f6 34 b0 3e 0d 01 32 b6 55 bf 32 50 97 5a b1
       -6.5833866e-10 7.511799e-09 2.2274303e-08 -3.1809186e-09
000020 49 3b 31 b2 ca 1f 80 2f 05 32 8b b2 d8 b5 34 30
       -1.0316236e-08 2.3305652e-10 -1.6204476e-08 6.5742034e-10
000030 f2 b6 3f b1 21 e6 c5 32 cb 67 5d b2 3d 5d 91 b1
       -2.789815e-09 2.3038469e-08 -1.2887493e-08 -4.2306554e-09

batchnorm_2_scale f4 [16]
000000 d3 88 6d 3f 95 d1 7b 3f 0b 63 84 3f c8 9b 88 3f
       0.927869 0.9836667 1.0342726 1.0672541
000010 f6 10 87 3f 73 d3 79 3f 96 c2 7b 3f ed 96 73 3f
       1.0552051 0.9758827 0.9834379 0.9515217
000020 59 5c 7f 3f 18 ed 81 3f cc 0f 7d 3f 6f f3 7a 3f
       0.99750286 1.015048 0.9885223 0.980277
000030 6e 46 82 3f 7c 5c 7f 3f e9 e5 75 3f 72 ee 81 3f
       1.0177743 0.99750495 0.9605394 1.0150893

batchnorm_2_B f4 [16]
000000 1e ce f0 bc 8b db de bd 13 9c f4 3b db cd 32 bb
       -0.02939516 -0.10881718 0.0074648946 -0.0027283344
000010 25 75 83 3b 4d d7 52 bc 7c fb 5b bd ca 93 27 bb
       0.0040117675 -0.0128687145 -0.05370663 -0.0025570267
000020 35 00 fc 3a 6f 5c 80 ba b6 18 a7 ba 82 b0 30 bd
       0.0019226136 -0.0009793172 -0.0012748453 -0.04313708
000030 eb ff a7 bc b7 6f 08 bd 6b 7c 28 bd 24 5f 3d bc
       -0.020507773 -0.033309665 -0.04113428 -0.011558328

batchnorm_2_mean f4 [16]
000000 78 2f f3 3e 8f 83 0e 3f 36 d3 c1 be f5 53 71 bf
       0.47497153 0.5566949 -0.37856454 -0.94268733
000010 ba a8 82 3e c3 5c ff 3e a5 5d aa be ad ba c0 3e
       0.25519353 0.4987546 -0.3327457 0.37642422
000020 3f 27 54 bf f4 0b f4 3e 74 c0 b8 3e 52 94 90 be
       -0.82872385 0.4766537 0.3608433 -0.2823816
000030 38 92 dd 3e 99 16 8d 3e f1 b6 c7 be 9b c7 47 bf
       0.4327562 0.27556303 -0.3900676 -0.7803895

batchnorm_2_var f4 [16]
000000 f8 e2 10 3f b8 7c 69 3e 9e 99 48 3e fa ff f9 3e
       0.56596327 0.22801483 0.1958985 0.48828107
000010 fa 9a cc 3e bb e4 b0 3e 43 08 dd 3e 74 64 e8 3e
       0.39961988 0.34549507 0.43170366 0.4538914
000020 34 05 3e 3f d6 89 12 3f 2b e6 22 3f c8 94 c5 3e
       0.7422669 0.5724157 0.6363246 0.38590074
000030 de 32 e4 3e b4 b4 a4 3e 8a f1 f6 3e 11 a8 71 3f
       0.4457006 0.32169116 0.48231155 0.94397074

conv_3_W f4 [32, 16, 3, 3]
000000 5b 31 02 3e 03 ec 86 3d c3 8f ce 3d 2b d6 0f 3d
       0.1271414 0.065879844 0.10086014 0.035116356
000010 6b e8 b1 bc 93 94 21 bd 53 43 79 bd 32 13 84 bc
       -0.02171727 -0.039448332 -0.06085522 -0.016122434
000020 ee 89 3e 3d 48 2b 80 3d e8 12 d1 bc f6 b3 59 3d
       0.04651826 0.06258255 -0.02552171 0.05315014
000030 17 17 9b bc ac f8 0e 3d 34 79 29 3d af 62 19 bd
       -0.018931909 0.03490512 0.041375354 -0.037447628
000040 c3 f8 26 3e 0d ba f1 bc 52 f8 d5 3c 79 f8 61 bc
       0.16305833 -0.029507661 0.026119385 -0.013792151
000050 37 c2 b1 bd 18 d3 a0 3c 20 74 f2 3d 71 f8 8e 3c
       -0.08679622 0.019631907 0.11838555 0.01745245
000060 fa 77 9c bd f5 91 a5 bc 55 61 a5 3d 04 7f 81 bd
       -0.07640071 -0.0202112 0.08075205 -0.063230544
000070 32 03 d3 bd b5 91 70 bd 31 48 b0 3c e3 f5 26 bd
       -0.10303344 -0.058732707 0.021518799 -0.04076184
000080 17 9f 17 3d 0e 4b 24 bd ef 71 54 bd a4 fd 18 3d
       0.037016954 -0.04011064 -0.051866468 0.037351266
000090 fc 4d 41 bd c0 59 06 3b 58 5e 0d 3a 0d 5f 85 bd
       -0.047193512 0.0020500273 0.00053927815 -0.0651227
0000a0 85 60 e9 3d 5b fa e2 3d 89 46 ca 3d 13 05 01 be
       0.11395363 0.11082908 0.09876735 -0.12599592
0000b0 db 9d 05 be ed 8a ad 3d 5f 57 2d bd 66 93 05 3e
       -0.13048498 0.084737636 -0.04231965 0.1304451
0000c0 5b 13 32 bd 73 40 e7 3d f1 33 c8 bc 02 1c c1 bd
       -0.04347549 0.112915896 -0.02443883 -0.0942917
0000d0 7f b3 5d 3c 95 a2 d7 3d 5d 7a 8d bd 87 ed 61 bd
       0.013531565 0.10529057 -0.069081046 -0.055158164
0000e0 bb 45 86 3d e7 ad d9 3d 00 9e ca 3d f0 c4 0f 3c
       0.06556269 0.10628872 0.09893417 0.008774981
0000f0 69 ae 43 bd b7 a4 f6 3b 0f 02 e1 3d d3 d2 c4 bd
       -0.047773752 0.0075269598 0.10986721 -0.09610524
000100 d8 17 fb bd 85 d6 89 bd 51 f3 b4 bd 95 bb 6d bc
       -0.12260407 -0.067303695 -0.088354714 -0.014510055
000110 60 00 c9 bd ed f4 df 3d b2 f2 ce 3d 61 a5 10 bd
       -0.09814525 0.10935388 0.10104884 -0.035313968
000120 67 08 0f 3d 47 c0 81 3d 01 ad 8f 3d 3b c4 69 3c
       0.034920122 0.06335502 0.0701542 0.014267976
000130 cb db cb bd 27 d9 93 bd 9c db 92 3d f4 e3 9c 3c
       -0.099540316 -0.07219153 0.071707934 0.019151665
000140 fa 21 cd 3d 21 07 2a 3d 9e 6e 21 3d 85 a2 e4 3c
       0.10016246 0.041510705 0.039412133 0.027909527
000150 1d 67 0e 3d 71 fb c2 bd 4d e9 a4 3d 3a 11 8d bd
       0.034766305 -0.09520615 0.08052311 -0.06888051
000160 bf 2e d6 3d 66 1b ca 3c 02 40 b7 bb ac c1 a3 bd
       0.10458135 0.024671268 -0.005592347 -0.07995924
000170 3d c3 cd 3d a8 cb fb bc c3 d0 3d bd 10 07 20 bd
       0.10047004 -0.03073676 -0.04634167 -0.039069235
000180 02 2a ee 3c 86 43 82 3c 84 4e ee bd cb 08 af bd
       0.029072765 0.015901338 -0.116360694 -0.08546599
000190 a2 a3 de 3c d6 15 bc bd d9 e3 5e 3d 79 ce 16 bd
       0.027177636 -0.091838524 0.05441651 -0.036818
0001a0 48 56 e1 3d 67 8a 87 3c 47 9f ae 3d a2 60 9f bd
       0.11002785 0.016545488 0.085264735 -0.07782103
0001b0 77 a6 0f bd ef 6b c7 bd 7f 73 1b be 6d 62 06 bd
       -0.035070863 -0.097373836 -0.15180777 -0.03280871
0001c0 87 b7 31 bd 6b b3 59 bd e9 c1 48 bd 16 e4 f3 3c
       -0.043387916 -0.053149622 -0.049013052 0.029771846
0001d0 fb fc 1b 3e f8 61 e9 3c 6f 0d 59 3b 8a 78 f4 3c
       0.15233223 0.028489098 0.003311958 0.029842634
0001e0 e0 2d 4e bd 4a 3d b1 bd 73 a5 6f 3d 1a f5 41 3d
       -0.05033672 -0.08654268 0.058507394 0.047352888
0001f0 68 f4 ec bd 9c b4 32 bd 7c 84 bc 3d 73 19 80 bd
       -0.11570054 -0.043629274 0.09204957 -0.06254854
000200 52 a1 b4 ba 38 d5 8a 3d 92 0f d4 ba 04 76 5a bd
       -0.0013780987 0.067789495 -0.0016178957 -0.053335205
000210 d8 74 49 3d 86 10 04 bd 92 4e 87 3d ac 95 01 3e
       0.049183697 -0.03224232 0.06606783 0.12654752
000220 4b 41 46 3d 35 8b 4d bd 9b 9d 7e bd 8a 3e 08 3d
       0.048402112 -0.050181586 -0.062162023 0.033262767
000230 32 56 31 3d 3d 29 ab bd 81 75 e8 3d 4c 39 af bd
       0.043295093 -0.08357475 0.11350537 -0.085558504
000240 12 74 dd 3c a3 14 eb 3d 55 c0 1d bd 2c 34 c2 3d
       0.027032886 0.114785455 -0.0385135 0.09482607
000250 17 28 8b bd ec 1c 7e 3d 0f 46 06 3d 0c f7 a3 bd
       -0.06794756 0.0620393 0.032781657 -0.08006105
000260 7b d6 68 bd 7b a4 c3 bd bd 5a 1f 3d fa 2e 30 3d
       -0.05684517 -0.095528565 0.038904894 0.04301355
000270 d5 76 fa bd 5e 16 00 3d c4 40 96 bd 62 31 95 bd
       -0.12229697 0.03127133 -0.07336572 -0.0728481
000280 9e 34 ab bc bd 4b 89 bd 40 e3 aa bd 18 31 62 bd
       -0.020899113 -0.06703899 -0.08344126 -0.0552226
000290 d3 73 8e bb b5 b0 cd bd d4 9d 4a bd 59 6e bb bd
       -0.0043473034 -0.1004347 -0.049466923 -0.091519065
0002a0 e7 fe 49 3d cf 62 98 bd b5 db 61 bd 87 f2 aa 3d
       0.04931536 -0.07440721 -0.05514117 0.0834704
0002b0 91 80 17 bd f5 cd 83 3d 2a ef 01 3e 64 c8 43 bd
       -0.036987845 0.064357676 0.1268889 -0.04779853
0002c0 bb d4 bb bd ee ba 60 3e 8e 5c 0b 3e a7 9e be 3d
       -0.091714345 0.21946308 0.13609526 0.09307604
0002d0 54 83 91 bc 2b c5 85 3d 9b cf 75 3d 68 13 dc bd
       -0.017762817 0.065317474 0.06001244 -0.10745889
0002e0 e1 84 ec bd f1 67 ae bd f5 cb 2e 3d aa 8a bf bd
       -0.11548782 -0.08515919 0.042674977 -0.0935262
0002f0 cd 88 40 bb f1 96 19 3d 82 2b 77 3d cc 3f 29 3d
       -0.0029378415 0.037497465 0.060344227 0.041320607
000300 d5 c3 f7 3c 7e 0e dc bd b8 75 4d bd 70 26 25 3d
       0.030244747 -0.10744952 -0.050161093 0.04031986
000310 0c 9a 04 be 39 3c 7b 3d c0 cf d3 3d 28 95 96 3c
       -0.12949389 0.06133673 0.103423595 0.01838167
000320 d9 67 96 bd 1a c7 94 bd 70 a3 f9 3c 1a e9 55 bd
       -0.07344026 -0.07264538 0.03047344 -0.052224256
000330 e4 b6 bd 3d 01 ab 49 bd db a2 ee 3c 39 bb 95 bd
       0.09263399 -0.049235348 0.02913039 -0.073111005
000340 e3 6e cf bd 22 61 d9 bd fa 96 96 bd ff fe b4 bd
       -0.10128572 -0.1061423 -0.07353015 -0.08837699
000350 06 b0 bc 3d 6f bc 20 bd 17 44 09 3e 44 41 d9 3d
       0.09213261 -0.039242204 0.1340488 0.106081516
000360 8a fa b7 bd 88 af ff bc aa 74 a7 3a 67 70 60 3d
       -0.089833334 -0.03121163 0.0012775857 0.054794695
000370 31 4a 5f 3d 09 20 b7 bd bc 55 80 3d 44 4a e3 bd
       0.054514114 -0.08941657 0.062663525 -0.110981494
000380 10 9c 98 3b 17 e0 c3 bc df cf 3b 3d b1 0b 7e 3d
       0.004657276 -0.023910565 0.04585254 0.06202287
000390 85 29 02 3e 34 e3 e0 bd e0 2d ee 3d 16 9c 96 bd
       0.12711151 -0.109808356 0.11629844 -0.0735399
0003a0 54 07 2f bd ca de d3 bd f3 b7 ba 3d 05 b1 2e 3d
       -0.042731598 -0.10345228 0.09117117 0.042649288
0003b0 5d 07 68 3d a1 32 c2 bc d6 19 6c 3d 0e 50 9d 3d
       0.056647647 -0.023705782 0.057641827 0.07681285
0003c0 b0 9b 99 bd 75 e0 3d 3d bb 14 ed 3c 88 53 23 3c
       -0.07500398 0.046356637 0.02894055 0.009968646
0003d0 13 5c e5 bd 43 b1 9a bd e7 06 4e 3d 95 78 fd bd
       -0.111992024 -0.07553341 0.05029955 -0.12376515
0003e0 98 61 e6 3a 0a fb 12 bd 3d e4 84 bd 57 f1 c8 3d
       0.0017576693 -0.03588394 -0.064888455 0.09811657
0003f0 6e 5b b1 3b 42 9b bd 3d 8b 0e 4c 3d 7a 51 ce 3d
       0.0054125106 0.09258129 0.049818557 0.10074134

conv_3_B f4 [32]
000000 21 fa 3d b1 f1 7d e9 b1 1a c5 a4 b1 b8 d5 c1 b1
       -2.7645302e-09 -6.7955104e-09 -4.795436e-09 -5.6413363e-09
000010 50 28 da 30 1a c0 60 b1 1e 18 de 31 c4 96 a4 b1
       1.5873045e-09 -3.2705487e-09 6.463792e-09 -4.7901683e-09
000020 c1 54 81 32 0c 2b b0 31 e4 e5 08 32 7d a1 00 b2
       1.5056118e-08 5.127168e-09 7.968513e-09 -7.487299e-09
000030 5e 83 3f b2 60 26 04 b2 ae 11 aa b2 e4 72 2a 32
       -1.1147533e-08 -7.692137e-09 -1.9798645e-08 9.9214255e-09
000040 87 2c 71 32 6e 56 82 31 96 42 84 b2 40 4c c5 31
       1.4038171e-08 3.793324e-09 -1.5397102e-08 5.742123e-09
000050 d2 b0 01 32 08 6b 54 b2 06 69 7f b1 6c 72 d5 ad
       7.5489925e-09 -1.236436e-08 -3.7167083e-09 -2.426611e-11
000060 46 46 a6 32 6b f2 28 32 0d ee 01 b2 71 ad 61 b2
       1.93569e-08 9.8340065e-09 -7.562915e-09 -1.313616e-08
000070 e6 37 13 32 1d 2d c3 b1 cb e5 58 b2 28 6a c6 2f
       8.569236e-09 -5.6803757e-09 -1.2625104e-08 3.609142e-10

batchnorm_3_scale f4 [32]
000000 4a 03 8f 3f dd f2 8d 3f 46 d5 91 3f 6a 25 98 3f
       1.1172879 1.1089741 1.1393211 1.1886418
000010 a6 69 8c 3f b0 35 92 3f df 6c 8c 3f f8 82 9a 3f
       1.0969741 1.1422634 1.0970725 1.2071218
000020 fb a6 8b 3f ff 21 90 3f ed dd 90 3f a7 88 96 3f
       1.0910333 1.1260375 1.1317726 1.1760453
000030 d0 ca 8c 3f 6b a6 92 3f ac 14 93 3f 4a f1 8a 3f
       1.0999393 1.1457037 1.1490684 1.0854886
000040 60 5a 96 3f 38 7a 88 3f bc 67 8c 3f 28 5e 9f 3f
       1.174633 1.0662298 1.0969157 1.2450609
000050 65 b8 8c 3f 79 6c 93 3f 19 c9 86 3f 27 02 9e 3f
       1.0993773 1.1517478 1.053012 1.2344407
000060 84 16 8b 3f b7 d0 90 3f a6 03 98 3f 1a 4a 8d 3f
       1.0866246 1.1313695 1.1876113 1.1038239
000070 ee ea 99 3f c8 7f 87 3f b5 13 8a 3f b0 ef 85 3f
       1.202482 1.0585871 1.0787264 1.0463772

batchnorm_3_B f4 [32]
000000 58 2c 31 3d fa 30 18 3d a3 16 a8 3c 27 93 7c 3d
       0.04325518 0.037156083 0.020518607 0.061663773
000010 97 91 fd 3c 82 0c a4 3d 86 f6 ac 3c b4 b0 69 3d
       0.030953212 0.08010198 0.021113645 0.057053283
000020 c9 d8 2b 3d bb 99 84 3d f0 df b0 3d 8a 18 37 3d
       0.04195479 0.06474634 0.08636463 0.044701137
000030 f2 05 05 3d 97 00 46 3d 9c b1 8e 3d e1 ca 4c 3d
       0.032476373 0.048340406 0.0696747 0.049998168
000040 c7 8a 7c 3d 1f ab 31 3d 26 6b f6 3c 19 9c c7 3d
       0.061655786 0.043376084 0.03008039 0.0974657
000050 44 50 6c 3d 94 7c 48 3d 05 bf 9e 3c 2d ce fa 3d
       0.057693735 0.048946932 0.019378195 0.12246356
000060 b7 fa 29 3d a8 f6 83 3d de ac bd 3d 01 79 1a 3d
       0.041498866 0.0644353 0.092614874 0.037713055
000070 7f 77 6d 3d 40 a3 13 3d 7d 67 cf 3c 1c 0c 21 ba
       0.05797529 0.03604436 0.025317902 -0.0006143467

batchnorm_3_mean f4 [32]
000000 84 14 44 3e a8 c9 4c be 34 cd fa 3e 62 e2 8b be
       0.19148451 -0.19998801 0.48984683 -0.27321154
000010 51 16 2c be 66 c9 d0 bd f3 f9 29 bd c1 68 82 be
       -0.16805388 -0.10194664 -0.041498136 -0.25470546
000020 22 f5 bd 3e 3c d6 8c 3e 6c 2c 5b 3e 40 85 4c bd
       0.37101084 0.27507198 0.21403664 -0.049931765
000030 92 ba 41 3e 6d 6c 4a 3e 47 ba 58 be f5 c8 15 be
       0.18918827 0.19767924 -0.21164809 -0.1462744
000040 3a 83 81 bd f9 22 e2 be 9a cb 5a be 8f c6 de be
       -0.063238576 -0.44167307 -0.2136673 -0.43510863
000050 e7 d2 63 be c1 75 cc 3e b3 ed c3 be 95 d9 08 3f
       -0.22248422 0.3993359 -0.38267288 0.53457004
000060 5e ec 26 bb e4 5d ea be 3f 44 2f 3f f4 3c e3 3d
       -0.0025470476 -0.45774758 0.6846351 0.1109561
000070 7b be 88 3d 1b 83 db be 1c 70 39 3d 78 a3 f7 bd
       0.06676956 -0.42873463 0.04527293 -0.12091726

batchnorm_3_var f4 [32]
000000 00 db 80 3e f1 24 bc 3e d1 53 cb 3e ed 55 ae 3e
       0.25167084 0.36746934 0.39712384 0.3404993
000010 9a 26 cf 3e d6 ce be 3e 96 b9 e1 3e 1c 97 b2 3e
       0.40459138 0.37267178 0.44086903 0.34880912
000020 28 2c b0 3e 5a 72 b7 3e 79 bb ea 3e 75 65 db 3e
       0.3440869 0.3582943 0.45846155 0.42850843
000030 f5 b8 a6 3e 63 55 09 3f 20 34 9e 3e ba a8 ec 3e
       0.32562986 0.53645915 0.30899143 0.46222478
000040 21 6c b5 3e 17 f2 06 3f 72 f0 e3 3e 79 b0 ea 3e
       0.35434058 0.5271315 0.44519383 0.45837763
000050 ae 5b 01 3f fd 09 c0 3e d4 5b d9 3e 46 48 f9 3e
       0.5053052 0.3750762 0.42452872 0.48687953
000060 23 aa c1 3e 7c 53 c4 3e eb 16 d3 3e 81 71 d7 3e
       0.37825117 0.38344944 0.41228423 0.42078784
000070 6f a7 c6 3e 52 88 f8 3e 7a 0a 9f 3e 9e 26 10 3f
       0.38799617 0.48541504 0.3106268 0.56308925

fc_W f4 [10, 32, 7, 7]
000000 78 6c e5 3c 60 81 1e bc 72 6e 5e 3d 15 29 37 bc
       0.028005823 -0.0096744 0.054304548 -0.011179228
000010 12 2e 26 3d 50 05 4e 3d 69 73 50 bd 26 20 4f bd
       0.04057128 0.050298035 -0.050891314 -0.05056777
000020 93 9b 24 bd c6 b3 cc bc aa 09 08 3c e5 df 0a 3d
       -0.04018743 -0.024988066 0.008303085 0.03390493
000030 dc 03 9c ba db 6c 3d 3d 8c 75 0f 3b aa 2e ee 3a
       -0.0011903006 0.04624639 0.0021890132 0.0018171866
000040 cc 50 1f bd 88 99 85 3d 77 c5 23 3b 85 c5 53 3a
       -0.038895413 0.065234244 0.0024989524 0.0008078444
000050 ba 0e 4d bb 71 4e cf 3d b7 aa 45 3c ee e5 dc bc
       -0.0031289295 0.101223834 0.012064627 -0.026965108
000060 a4 35 1a 3d fe 01 a3 3c 51 cc 41 3c 03 69 29 bd
       0.037648812 0.01989841 0.011828498 -0.041359913
000070 05 3a 9d ba de ce c9 3d 82 ae 80 bd 05 f3 dc bc
       -0.001199544 0.0985391 -0.06283285 -0.02697135
000080 d0 50 52 bd d2 8f 74 3c a6 fc 00 bd 34 04 1b 3d
       -0.0513466 0.014926868 -0.031490944 0.037845805
000090 fe e3 81 bc 77 68 c3 3c 92 c7 22 3b 4c a4 ec b9
       -0.015855785 0.023853524 0.0024838191 -0.00045135838
0000a0 63 7a 85 bd 0b 02 46 bd 0f 63 c1 ba d1 d9 a2 3c
       -0.06517484 -0.048341792 -0.0014754253 0.019879254
0000b0 ad 47 b9 bc 7b 7e 15 3c 35 b2 8d bd 48 e0 01 bd
       -0.022617185 0.009124394 -0.06918756 -0.031708032
0000c0 4f 1d 46 3d a7 0c 9a 3a 90 2b 22 bc f9 da 29 3c
       0.048367795 0.0011753038 -0.009898081 0.010367149
0000d0 f3 05 1b 3d e7 bf 72 bd 64 53 70 bd 5a a8 5f 3d
       0.03784747 -0.059265044 -0.058673277 0.054603912
0000e0 43 c0 23 bd 54 34 e3 3c b7 7b 08 bd d2 0a 7b 3b
       -0.039978277 0.027734913 -0.03332111 0.003830601
0000f0 c5 5a c1 bc d1 8e 9f ba 6a 38 6c bd 48 29 1a bd
       -0.023602853 -0.00121733 -0.05767099 -0.037637025
000100 fb 7f 26 3c 95 44 01 bd 6c 48 a1 bd 76 7f ae 3c
       0.010162349 -0.031559546 -0.078751415 0.021301012
000110 64 d6 7e 3d de 4c 1c 3d 90 1b 58 bb 30 c9 33 3d
       0.062216178 0.038159244 -0.0032975413 0.04389304
000120 cb 54 f4 3d 10 9d 0a 3e 19 b3 86 bd 1d 1f 5f 3d
       0.119302355 0.13536477 -0.06577129 0.05447303
000130 40 67 1e 3d c1 b1 68 bd 19 0b 15 bd 1a 85 e2 3d
       0.038672686 -0.056810144 -0.036387537 0.11060543
000140 a9 e7 84 3d 0f d1 08 3d e2 f2 91 bd 56 4f 70 3d
       0.06489498 0.0334025 -0.07126404 0.05866941
000150 b0 df 01 3d 71 ac d9 bc c4 07 1c bd f1 7b c6 bc
       0.031707466 -0.026571484 -0.038093343 -0.024229022
000160 f0 c6 5a bc e6 62 40 bc 7d 14 5d bd 11 96 ea 3c
       -0.013353094 -0.011742329 -0.053974617 0.02863601
000170 23 c0 50 bd c7 d9 00 3c d3 31 f2 3c f5 14 74 3c
       -0.050964486 0.007864422 0.029564774 0.014897575
000180 99 31 f2 3c 9c 8e 0a 3b 94 ed c9 3b 8d 6e 22 bd
       0.029564666 0.002114213 0.0061623547 -0.03965621
000190 b6 a7 5d bc b8 d2 6a 3d 74 52 e2 bc 94 0b 96 bc
       -0.013528755 0.057329863 -0.027627207 -0.018316068
0001a0 bd af 14 bd 43 45 73 bc 05 ac 04 3d 70 9d 9c bd
       -0.03630041 -0.014848056 0.032390613 -0.07647216
0001b0 4d b9 1f bc bc b1 67 3d be 69 8e bd 50 96 ad 3c
       -0.009748769 0.056565985 -0.069537625 0.021189839
0001c0 64 81 1f 3d 82 62 79 3c 9f 64 af bd 11 de cc bd
       0.038941756 0.01522124 -0.08564114 -0.10003293
0001d0 c8 a5 40 bd 6b 8d c2 bb c4 52 5f 3d 3b 57 3e bd
       -0.0470331 -0.0059372685 0.05452229 -0.04646991
0001e0 9e 02 9a bd 46 62 b6 bd 64 53 4f bc 1d 5c 37 bc
       -0.075200304 -0.08905463 -0.012654159 -0.011191395
0001f0 bb 71 da bc de 4b b9 3b 9d 5e 3a 3d 2c 5a 36 ba
       -0.026665559 0.005654796 0.045500387 -0.00069561857
000200 ca 1d d7 bd af 4a 5d 3d 26 3d b7 3b 27 66 22 3d
       -0.10503729 0.054026302 0.0055920063 0.0396482
000210 6b 85 7f bd 9a a1 5a 3c 23 eb fc bb 02 90 2a bd
       -0.062383097 0.013344193 -0.00771846 -0.041641243
000220 09 2a cf bd c4 4d 02 3d f2 6a 71 3d e4 f4 10 bd
       -0.101154394 0.031812444 0.05893988 -0.035389796
000230 f4 b4 66 bd 57 bb 29 3d c6 30 85 3c a6 21 bf 3c
       -0.056324914 0.041438427 0.016258609 0.023331475
000240 83 f9 ea 3c a2 a5 4e bd c1 07 ba bb 34 82 bc bc
       0.02868343 -0.05045093 -0.005677194 -0.023011304
000250 f0 c5 05 3d c5 9a 93 3c d4 38 c6 3c 72 0d 11 3d
       0.03265947 0.018018136 0.02419702 0.035413213
000260 00 bf 58 3d 90 57 01 3c 75 5a e5 bb cd 55 43 bd
       0.052916527 0.007894412 -0.0069993087 -0.047689248
000270 85 64 fd bc b3 93 92 3c ff be 9a 3d 04 7e 0d bd
       -0.03093172 0.017892694 0.07555961 -0.034544006
000280 fd 94 10 bd f2 f1 89 3d 15 41 b6 bd 54 7b 77 bd
       -0.035298336 0.067356005 -0.08899132 -0.06042035
000290 38 ad b0 bd 41 ff c7 bd aa 01 a7 bd 2a f0 92 bd
       -0.08626789 -0.09765483 -0.08154614 -0.07174714
0002a0 57 0d 0a bd af 18 e2 3c f5 f6 d1 bd 15 ed 0d be
       -0.033704128 0.02759966 -0.102521814 -0.13859971
0002b0 da c8 51 3d 11 66 9e bd 07 a0 de 3c 49 3a 3f 3d
       0.051216938 -0.07734311 0.027175916 0.046686444
0002c0 47 7b d2 3c 4a 70 29 3c 85 8c 64 bd 72 5d c2 3d
       0.025693549 0.010341713 -0.055798072 0.094904795
0002d0 83 0a 16 bd 6b 01 e9 bc c8 aa 69 bd 0c 92 04 3d
       -0.03663112 -0.028443059 -0.057047635 0.032365844
0002e0 12 8d 52 3b c9 90 b4 bd 10 b8 e9 3c 58 92 06 3c
       0.0032127541 -0.08816678 0.02853015 0.008213602
0002f0 0f c2 27 3d 66 d4 6c bc aa a7 24 3d 37 0e 01 bb
       0.040956553 -0.014454937 0.04019896 -0.001969231
000300 d9 70 4d bd 84 19 0e bd 4d 95 4f bd 9a 40 de bc
       -0.050156448 -0.034692302 -0.050679494 -0.027130414
000310 3a 0e 7b 3d 43 03 90 3c 47 fc 60 bd b1 f7 0b 3d
       0.061292864 0.01757968 -0.05492809 0.034171764
000320 9f 7e 5c 3d f1 84 13 3d 3f 89 90 3d 33 0d 82 bd
       0.053831693 0.036015455 0.070574276 -0.06350174
000330 b2 60 81 bd c0 b6 14 3d b5 6f eb bc b1 4f 4a bd
       -0.06317271 0.036307096 -0.02873979 -0.049392406
000340 e1 6b 48 bd ce 9c 8a 3c f9 4f d6 bc 9d 81 1f bd
       -0.048931006 0.016920473 -0.02616118 -0.03894197
000350 5e bf 68 3d 93 9e 49 ba bd 0d 83 bc 32 68 96 3d
       0.056823127 -0.0007691171 -0.015997762 0.073440924
000360 70 19 05 bd 9b 5f a1 bc 50 4a 9d bd 31 6d 78 ba
       -0.032494962 -0.019698909 -0.076801896 -0.000947672
000370 f8 5b bc 3c 2b d6 5c 3c af 7b b4 bc 4c f3 21 bd
       0.022993073 0.013478796 -0.022031633 -0.039538667
000380 a7 0d 61 bd 05 bf 2b bd 77 f3 ef bc 13 19 48 bc
       -0.05494466 -0.041930217 -0.029290898 -0.012213009
000390 5a 86 6e 3d 2a f8 02 3c 71 68 83 bc 0c 57 7e bd
       0.058233596 0.007993737 -0.016041012 -0.062094733
0003a0 d7 a7 cc bc 64 00 2f 3b 57 c3 8a bd 86 1d 31 3b
       -0.024982376 0.0026703114 -0.06775539 0.0027025654
0003b0 13 c5 61 3d 59 14 21 ba 54 a8 0f 3d 83 c5 2e bc
       0.055119585 -0.00061446946 0.03507264 -0.010667208
0003c0 8f 5c b3 bc d8 a8 57 3c c2 d2 0f bd 82 fe e0 3c
       -0.021894721 0.013162814 -0.035113104 0.027465109
0003d0 dc be d2 3c 77 a0 52 3c 1b 7b d9 bc 07 3f 9c bb
       0.025725774 0.012855641 -0.02654796 -0.0047682556
0003e0 79 fb 00 3c 8d fa 70 3d 22 11 25 3d f7 58 1f bd
       0.007872456 0.058832694 0.040299542 -0.038903203
0003f0 2b 1c 74 bd 5f 61 75 bd 5c e3 54 bd aa 8c da 3c
       -0.059597176 -0.059907313 -0.05197464 0.026678402

fc_B f4 [10]
000000 64 72 06 bc 2e f3 4f 3c 1b 60 15 3c 65 d7 91 3b
       -0.008205984 0.012692256 0.009117152 0.004450726
000010 c0 53 31 bb 6e 09 89 bb db 40 31 bb 63 f9 c6 3b
       -0.0027057976 -0.0041820323 -0.0027046714 0.0060722097
000020 c3 43 ae b9 97 b0 68 bc
       -0.00033238353 -0.014202259
