StarV/util/data/nets/NAHS2024_RNN/MNIST_LSTM30net.onnx (onnx, 205764 bytes, 7 tensors)

lstm_W f4 [1, 120, 392]
0	0x3a89b6d8	0.0010506762
1	0xba38cd72	-0.00070496567
2	0xbbd84944	-0.006600531
3	0xbc00c2b4	-0.007858921
4	0xbd8fc883	-0.070206665
5	0xbcedb9a4	-0.029019184
6	0xbd151fc5	-0.03640725
7	0xbdd2956a	-0.10282405
8	0xbe55a5dd	-0.20864053
9	0xbe6d5ceb	-0.23179977
10	0xbd436fb4	-0.04771395
11	0x3bd70483	0.006561817
12	0x3c2ef5cc	0.01067872
13	0xbe2237b1	-0.15841557
14	0xbe29d8fe	-0.16586682
15	0xbd978a89	-0.0739947
16	0x3c89d395	0.016824523
17	0xbd14454b	-0.036198895
18	0xbd96b3b4	-0.073584944
19	0xbe272f36	-0.16326603
20	0xbe41f845	-0.18942364
21	0xbe49a9e4	-0.19693714
22	0xbdd65412	-0.10465254
23	0xbcb8d7a5	-0.022563765
24	0x3d05fd62	0.032712348
25	0x3cca3161	0.024681749
26	0x38debb5c	0.00010620683
27	0xa7a7af47	-4.6541847e-15
28	0x39afbd66	0.00033519714
29	0xb4926a82	-2.7272114e-07
30	0x3a81db10	0.0009907205
31	0x3b7c8ff3	0.003853795
32	0xb94f7fff	-0.0001978874
33	0xbcd9f812	-0.026607547
34	0xbc887575	-0.01665757
35	0xbe030ec8	-0.12798607
36	0xbe7583ab	-0.23976009
37	0xbe11d026	-0.14239559
38	0xbdaeb145	-0.08529905
39	0xbe121da9	-0.14269127
40	0xbe3fc256	-0.18726477
41	0xbe88a074	-0.26684916
42	0xbd6b83f3	-0.057498883
43	0x3d76e202	0.06027413
44	0x3dbd1831	0.0923313
45	0x3cca0893	0.024662292
46	0x3dcbbc2d	0.09948001
47	0x3d58fdc0	0.05297637
48	0xbda89372	-0.08231248
49	0xbdced708	-0.10099608
50	0xbe1892f0	-0.14899802
51	0xbd569402	-0.052387245
52	0x3d311ced	0.043240476
53	0x3d1c1231	0.038103286
54	0x3b3b7b28	0.0028607342
55	0x36e822dc	6.918197e-06
56	0x35cf0d26	1.5426529e-06
57	0xb4a56386	-3.0806058e-07
58	0x3b9e6440	0.004833728
59	0x3c8cc7ae	0.017185058
60	0x3d7ac800	0.06122589
61	0x3d68b5d4	0.05681403
62	0x3cb2a7f3	0.0218086
63	0x3c5e575e	0.013570635
64	0xbd8ec300	-0.06970787
65	0xbddf0bed	-0.108909465
66	0xbce39bbf	-0.027784226
67	0xbd3f0f1e	-0.046645276
68	0xbe34fb87	-0.17674075
69	0xbe0b6487	-0.13612567
70	0x3b4d7930	0.003135275
71	0x3d00d136	0.03144952
72	0xbcdd4fbf	-0.027015565
73	0x3e01cf27	0.12676679
74	0x3e1e28ae	0.15445206
75	0x3df65d78	0.120295465
76	0xbcf8ae2c	-0.03035649
77	0xbd5fbaa6	-0.05462136
78	0xbd4cdf8d	-0.050017882
79	0x3c06226f	0.008186921
80	0x3bf20a0c	0.0073864516
81	0x3cc2781c	0.023738913
82	0x3c179e66	0.009254074
83	0x39d2e2b5	0.0004022323
84	0x0001324d	1.0988e-40
85	0x34d3e3c3	3.946753e-07
86	0x3ba48583	0.0050207986
87	0x3c88fdb5	0.01672254
88	0x3dda31b4	0.10654011
89	0x3e05470f	0.13015388
90	0x3df11841	0.11772204
91	0x3e138462	0.14405969
92	0x3debb567	0.11509209
93	0xbc4202a6	-0.011841452
94	0x3b0a5e18	0.0021113213
95	0xbcfd30e4	-0.030907102
96	0xbd2ed992	-0.04268796
97	0x39a8ddf2	0.0003220882
98	0x3e14d485	0.14534195
99	0x3df4662c	0.1193355
100	0x3dbd7eac	0.09252676
101	0x3e221046	0.1582652
102	0x3cfe08fa	0.03101014
103	0x3d8b2223	0.067936204
104	0xbd82a5f2	-0.06379308
105	0xbc9525bf	-0.018206475
106	0xbc38be3e	-0.011275826
107	0x3c7a35da	0.015271628
108	0x3d1aae6b	0.037763994
109	0xbbd4afb6	-0.006490673
110	0x3b95c16b	0.0045701764
111	0x373ab996	1.1129674e-05
112	0xb96877b4	-0.00022169837
113	0x3608aa0b	2.0364557e-06
114	0x3a3adb45	0.00071280106
115	0x3bf7c073	0.0075607835
116	0x3ddcbab1	0.10777796
117	0x3e18ea63	0.14933161
118	0x3dfc1961	0.12309528
119	0x3e47c961	0.19510414
120	0x3e881276	0.26576585
121	0x3e49144b	0.19636647
122	0xbd20185f	-0.039085742
123	0xbd8c58d5	-0.06852881
124	0x3d2a05d3	0.04150946
125	0x3dc5d08a	0.09658916
126	0x3e74876a	0.23879781
127	0x3e88d894	0.26727736
128	0x3e8eda34	0.2790085
129	0x3dd66235	0.1046795
130	0xbd1e37e3	-0.038627516
131	0xbb3083d2	-0.002693404
132	0xbda706c7	-0.081555896
133	0xbd6656ae	-0.056235008
134	0xbc9ade7b	-0.018904915
135	0x3bec7579	0.0072161523
136	0xbc39930d	-0.011326564
137	0xbca50c34	-0.02014742
138	0x3ba9a4d6	0.0051771207
139	0x3b6f78ae	0.0036540437
140	0x24d97383	9.430443e-17
141	0x3995688e	0.00028497394
142	0x39adf1f0	0.0003317739
143	0x3c986693	0.018603599
144	0x3de32c39	0.11092419
145	0x3e1b87f8	0.15188587
146	0x3db17cea	0.086664036
147	0x3de26ce6	0.11055927
148	0x3e7ff2cc	0.24994963
149	0x3e268a62	0.16263726
150	0x3d89f0a4	0.06735352
151	0xbda11409	-0.078651495
152	0xbdff4bdb	-0.1246564
153	0x3d219186	0.039445423
154	0x3e646b8a	0.22306648
155	0x3e166d3c	0.14690107
156	0x3e8509ce	0.25984043
157	0x3e364cc9	0.17802729
158	0xbcbef15e	-0.023308452
159	0xbc973595	-0.018458167
160	0xbd8f755e	-0.07004808
161	0x3c6e499b	0.014543916
162	0x3ce976d7	0.02849905
163	0xbc916e06	-0.017752659
164	0xbdb804df	-0.08985304
165	0xbd368975	-0.044564683
166	0x3b7e412c	0.003879617
167	0x3b84bb19	0.004050624
168	0x8003e274	-3.56743e-40
169	0x368f561d	4.271757e-06
170	0xba86f102	-0.0010295215
171	0xbb6213c6	-0.003449665
172	0x3d852b4e	0.065024
173	0x3d46e6cb	0.048559945
174	0xbdc1b3b8	-0.09458107
175	0x3c715673	0.014730084
176	0x3dedeefa	0.11617847
177	0x3e37b0ff	0.17938612
178	0x3e488c98	0.19584882
179	0x3b0b4e89	0.0021256527
180	0xbdc9c97b	-0.098528825
181	0xbd775486	-0.060383342
182	0x3de2f3f6	0.11081688
183	0xbbdbc6ce	-0.006707049
184	0x3e1f11f8	0.15534198
185	0x3e7b38ba	0.24533358
186	0x3dd02dd9	0.10164995
187	0xbd96d691	-0.07365144
188	0xbdc025ff	-0.09382247
189	0xbcf26097	-0.029587073
190	0xbe083206	-0.13300332
191	0xbe1a1f07	-0.15050898
192	0xbe17226c	-0.14759225
193	0xbd7d49b0	-0.061837852
194	0xbc34bd6a	-0.011031488
195	0xbc2273a5	-0.009915267
196	0x388edbb7	6.812013e-05
197	0xb82a4dcd	-4.0603616e-05
198	0xbb951df0	-0.004550688
199	0xbd26e86c	-0.040749
200	0xbd46caab	-0.048533123
201	0xbd3ea303	-0.04654218
202	0xbd7e012d	-0.06201284
203	0x3d795fce	0.060882382
204	0x3dd61705	0.104536094
205	0x3e3bc82e	0.18338081
206	0x3e1dda5e	0.15415332
207	0x3de66728	0.11250144
208	0xbdd97179	-0.10617346
209	0xbe642583	-0.22279935
210	0xbce31207	-0.027718557
211	0x3d6b70ee	0.057480745
212	0x3e565be0	0.20933485
213	0x3e58972b	0.21151416
214	0x3d48f622	0.049062856
215	0xbcffebe3	-0.03124041
216	0xbc93e285	-0.018052349
217	0xbde135c7	-0.10996585
218	0xbe2cad8a	-0.16863075
219	0xbe2b0e63	-0.16704707
220	0xbe1d3f7b	-0.15356247
221	0xbccce1ca	-0.025010008
222	0xbc362345	-0.011116807
223	0xbbf9591f	-0.007609501
224	0xba82b9d8	-0.0009973599
225	0xbabbdd10	-0.001433285
226	0xbb1aeaa5	-0.0023638394
227	0xbd17501c	-0.036941633
228	0xbd7661a2	-0.060151704
229	0xbd6c55ad	-0.057698894
230	0xbd8fb61c	-0.070171565
231	0xbd9fe4db	-0.078073226
232	0xbdcf13e9	-0.101112194
233	0x3ccc5afe	0.024945732
234	0x3e097de0	0.13426924
235	0x3e34a982	0.17642787
236	0xbe1fd9f5	-0.15610488
237	0xbebaf3be	-0.36514086
238	0xbe211349	-0.15730013
239	0x3d92e302	0.071722046
240	0x3e64bbc1	0.22337247
241	0x3e6c9d57	0.23106895
242	0x3db68769	0.08912546
243	0xbd62185d	-0.055199016
244	0xbd701f70	-0.05862373
245	0xbdc785a3	-0.09742286
246	0xbdd0511f	-0.101717226
247	0xbe6ce455	-0.23133977
248	0xbe467da1	-0.19383861
249	0xbd8f7a1e	-0.07005714
250	0xbc81f28b	-0.015862724
251	0xbbbb2058	-0.005710643
252	0x3659d770	3.246092e-06
253	0x391709e3	0.00014404165
254	0xbc278139	-0.01022368
255	0xbd356215	-0.04428299

lstm_R f4 [1, 120, 30]
0	0x3e0f5e88	0.14000905
1	0x3db20c1c	0.08693716
2	0xbd23a804	-0.039955154
3	0xbd9f4d16	-0.07778375
4	0xbe2bc0bd	-0.16772743
5	0xbd8a5578	-0.06754583
6	0xbe8c1c62	-0.27365404
7	0xbda03629	-0.0782283
8	0x3df0a121	0.11749483
9	0xbd32adc3	-0.043622743
10	0x3dc3b332	0.09555663
11	0x3e035265	0.128244
12	0xbda840fc	-0.0821552
13	0x3e712f3c	0.23553175
14	0x3def8d10	0.116968274
15	0x3dbe4e3a	0.09292264
16	0xbc91080c	-0.017704032
17	0xbd119f30	-0.035552204
18	0x3e32ac3c	0.17448515
19	0xbe7fc9fb	-0.24979393
20	0xbe3acf1e	-0.18243071
21	0xbcd8c282	-0.026459936
22	0xbdb49384	-0.08817199
23	0x3d9499c7	0.07255893
24	0x3e12b754	0.14327747
25	0x3c90c386	0.017671358
26	0x3ea4cac8	0.3218596
27	0x3d99050e	0.07471667
28	0x3dbe1b23	0.0928252
29	0xbe042e35	-0.12908252
30	0x3e48cd9b	0.19609682
31	0x3e15e493	0.14637975
32	0xbe8f188a	-0.2794841
33	0x3d7a1924	0.061059132
34	0x3e59c6a8	0.21267188
35	0xbd2619c6	-0.040551923
36	0xbe8b0cfc	-0.27158344
37	0x3dc091cd	0.09402809
38	0xbd10e3dd	-0.035373557
39	0x3d8bfa8b	0.06834897
40	0xbd3c39ed	-0.04595368
41	0xbe270b2c	-0.16312855
42	0xbd7e7ffc	-0.062133774
43	0x3e51f419	0.20503272
44	0x3eab2b5f	0.33431527
45	0x3df08e92	0.11745943
46	0xbf01d3fe	-0.507141
47	0xbe9a3256	-0.30116528
48	0x3da0e56e	0.0785626
49	0xbe0ef414	-0.13960296
50	0x3c3bf1c2	0.011471214
51	0xbbd1ce78	-0.006402787
52	0x3e08ce3b	0.1335992
53	0x3dd8408e	0.10559188
54	0x3d032a65	0.032022852
55	0x3dcd9b8e	0.10039435
56	0xbe48fd1f	-0.19627808
57	0x3d6b93ee	0.057514124
58	0xbd35d2db	-0.04439054
59	0xbe018dfc	-0.12651819
60	0x3b54aa91	0.0032450298
61	0xbe18ccae	-0.14921829
62	0x3d8a0f22	0.067411676
63	0x3df1b43f	0.11801957
64	0x3c6b40df	0.014358728
65	0x3d6fa1cf	0.058503922
66	0x3df01ac7	0.117238574
67	0x3c136e82	0.008998515
68	0x3d20d688	0.039267093
69	0x3e0f9334	0.14020997
70	0x3c563091	0.013073103
71	0xbd03da73	-0.03219075
72	0xb731cce0	-1.0597723e-05
73	0xbd6e2a85	-0.05814602
74	0x3d7da06d	0.061920572
75	0xbcc25be3	-0.023725456
76	0xbd1e7ed4	-0.03869517
77	0x3d7c606b	0.06161539
78	0x3cd68820	0.026187956
79	0x3cb2f2b1	0.02184424
80	0xbcc43c22	-0.023954455
81	0x3d7b2444	0.061313882
82	0xbd42f6ba	-0.047598578
83	0xbdac9ebf	-0.08428716
84	0x3e0f2679	0.1397952
85	0xbd6e41bf	-0.05816817
86	0x3d9adee7	0.075620465
87	0xbc1ed808	-0.009695061
88	0x3da36870	0.07978904
89	0x3b60d004	0.0034303674
90	0xbe1391df	-0.14411114
91	0xbd8b340f	-0.06797039
92	0xbe7fd27f	-0.24982642
93	0x3cde150e	0.027109649
94	0x3bf789e4	0.0075542796
95	0x3c5312ff	0.012882947
96	0xbeaaf364	-0.33388817
97	0xbdd1b9d2	-0.102405205
98	0x3b234073	0.002491024
99	0x3e8d26f2	0.27568775
100	0xbe94a98e	-0.2903561
101	0x3dafd152	0.085848466
102	0xbea42249	-0.32057407
103	0xbe14e1d4	-0.14539272
104	0x3cab937a	0.020944346
105	0x3e5beeb8	0.21477783
106	0xbe959497	-0.29214928
107	0x3dc2e22f	0.09515797
108	0x3b44811c	0.0029984182
109	0x3ef4c09c	0.478032
110	0x3e163a0e	0.14670584
111	0x3db72d0c	0.08944139
112	0xbe2ebb83	-0.17063718
113	0x3e9f8821	0.31158546
114	0x3dea4910	0.11439717
115	0xbdc34af8	-0.095357835
116	0xbe122524	-0.1427198
117	0x3e1d17b0	0.15341067
118	0x3e2e30e5	0.1701084
119	0xbd69a79c	-0.05704461
120	0xbd8711a3	-0.06595161
121	0x3bdfa370	0.006824903
122	0xbd410217	-0.047121134
123	0xbc3b7423	-0.011441263
124	0x3db4cb1f	0.08827805
125	0x3e8f8ff6	0.2803952
126	0x3c763a5f	0.015028565
127	0x3d35989d	0.044334996
128	0xbd389920	-0.045067906
129	0x3d56cbba	0.052440383
130	0x3dd2971b	0.10282727
131	0xbdefe04a	-0.117127016
132	0x3e571b21	0.21006443
133	0xbe0d923f	-0.1382532
134	0xbca2bc83	-0.01986528
135	0xbd3ce9bd	-0.046121348
136	0xbe259d60	-0.16173315
137	0x3dc50915	0.09620873
138	0x3e8b5035	0.2720963
139	0x3d507daf	0.05090111
140	0xbe28062b	-0.16408603
141	0x3dd57a33	0.10423698
142	0xbd7aafbc	-0.06120275
143	0x3e27dbb2	0.16392401
144	0x3e750ece	0.23931429
145	0xbd8af0b1	-0.067841895
146	0x3cfaeb10	0.030629665
147	0x3d85fffa	0.06542964
148	0x3e2fe2c2	0.17176345
149	0x3bb8e085	0.005641999
150	0xbe43b52d	-0.19112082
151	0x3e0b933e	0.13630387
152	0x3ed0e419	0.40799025
153	0x3d7080cf	0.05871659
154	0xbd7a0ddb	-0.06104837
155	0xbed553cb	-0.4166549
156	0x3d17d5ed	0.03706925
157	0xbe868768	-0.26275182
158	0x3e6bf571	0.23042847
159	0xbd9eaa28	-0.077472985
160	0xbd5b4096	-0.05352839
161	0x3de41dca	0.11138494
162	0x3db5a034	0.08868447
163	0x3e8ab796	0.2709319
164	0xbdb27d79	-0.08715338
165	0x3da27e4b	0.07934245
166	0xbe6a579d	-0.22884984
167	0xbeaa2c84	-0.33237088
168	0x3dc3dbc6	0.09563403
169	0xbec70f84	-0.38879025
170	0xbe0ca0db	-0.13733236
171	0xbe21a48d	-0.15785427
172	0x3dca238a	0.0987006
173	0xbe026edc	-0.12737602
174	0xbaf76ffa	-0.0018877976
175	0x3b619675	0.0034421955
176	0xbe004248	-0.12525284
177	0x3c5e8b16	0.013582965
178	0x3d8b9530	0.06815565
179	0xbe58e366	-0.21180496
180	0xbe81b330	-0.25332022
181	0xbdace469	-0.08442003
182	0x3c36dde4	0.011161301
183	0x3cd712d3	0.026254093
184	0xbe7a36b8	-0.24434936
185	0xbd7ae55c	-0.06125389
186	0xbeb776df	-0.3583288
187	0xbbe627f7	-0.007023807
188	0x3e2c1a3d	0.16806884
189	0x3e3f06df	0.18654965
190	0xbe06a1b8	-0.13147628
191	0x3d246872	0.04013867
192	0xbd97b355	-0.07407252
193	0xbcd4285b	-0.02589815
194	0x3d930a5b	0.071797095
195	0x3dc469cc	0.09590492
196	0xbe841056	-0.25793713
197	0xbc9569af	-0.01823887
198	0xbdea3c4d	-0.11437283
199	0x3e4fb0fe	0.20282361
200	0xbd43ca05	-0.047800083
201	0x3e3d126e	0.18464062
202	0x3dc3700c	0.095428556
203	0xbc832d81	-0.016012909
204	0xbd72dcd7	-0.05929264
205	0x3e58fa56	0.21189246
206	0xbe58c750	-0.21169782
207	0x3d79ba2a	0.060968556
208	0xbcce39b7	-0.025174005
209	0xbeb8c6ad	-0.36089078
210	0xbc4b7255	-0.012417396
211	0xbd0243f8	-0.0318031
212	0xbdfe26b9	-0.124097295
213	0x3e3d0a1b	0.18460886
214	0xbc95d929	-0.018292027
215	0x3e43ff83	0.19140439
216	0x3d1e6573	0.03867097
217	0x3c23a181	0.009987236
218	0x39fed588	0.00048605748
219	0x3db33a8e	0.08751403
220	0x3d1a849f	0.037724134
221	0x3ce3e56f	0.027819363
222	0x3b9666cc	0.004589891
223	0xbd3d3458	-0.046192497
224	0x3d37ac4e	0.044842057
225	0xbdb4c434	-0.08826485
226	0xbd9111eb	-0.07083496
227	0x3e6ea042	0.23303321
228	0xbdfe9e86	-0.1243258
229	0x3e38089c	0.17972034
230	0x3cbd9547	0.02314247
231	0x3ccc1d39	0.024916278
232	0xbd3b19a7	-0.04567876
233	0xbc42990d	-0.01187731
234	0x3abd51cb	0.0014443932
235	0xbd8b77ec	-0.06809983
236	0x3da1e481	0.07904912
237	0x3de5125e	0.11185144
238	0xbcd571a1	-0.026055159
239	0x3ddfec3b	0.10933729
240	0x3e220a3c	0.15824217
241	0xbd136298	-0.0359827
242	0xbcebf857	-0.028804941
243	0x3d4c9934	0.049950793
244	0x3d99a285	0.07501701
245	0xbcd2fd4e	-0.02575555
246	0xbe913912	-0.28363854
247	0x3dbd8162	0.092531934
248	0x3e201ea7	0.15636693
249	0x3d962d4e	0.0733286
250	0xbeb1f72f	-0.347589
251	0x3ea39cda	0.31955606
252	0xbe073ea7	-0.13207494
253	0x3e099dd0	0.13439107
254	0x3ebc7644	0.3680898
255	0x3dae3b66	0.08507423

lstm_B f4 [1, 240]
0	0x3e00795d	0.12546296
1	0x3f0358f3	0.513076
2	0x3e546004	0.20739752
3	0x3eb2c643	0.34916887
4	0x3ed76411	0.42068532
5	0x3d71d649	0.05904225
6	0x3e8a4caa	0.27011615
7	0x3e0cf3c3	0.13764863
8	0xbc8b2096	-0.016983312
9	0x3e417ad6	0.18894514
10	0x3e4043d6	0.18775877
11	0x3d21bc76	0.03948637
12	0xbd417aac	-0.04723613
13	0x3eec2fc4	0.46130192
14	0x3e5fd105	0.21857078
15	0x3e977d8b	0.2958797
16	0x3e9117e6	0.28338546
17	0x3f320caa	0.69550574
18	0x3e822c3d	0.25424376
19	0x3e1b063e	0.151391
20	0x3ec1cad0	0.37850046
21	0x3e656786	0.22402772
22	0x3ea45664	0.3209716
23	0x3e2c472d	0.16824026
24	0x3ea0321e	0.31288236
25	0xbcad6823	-0.02116782
26	0x3ed3be89	0.41356304
27	0x3dc6737d	0.096899964
28	0x3e9408a8	0.28912854
29	0x3e055ca8	0.13023627
30	0x3df87c69	0.12133104
31	0x3e8f4944	0.27985585
32	0x3e5314c6	0.20613393
33	0x3f74eee9	0.9567705
34	0x3ed1942a	0.40933353
35	0x3d0efa7e	0.034906857
36	0x3f2ccae6	0.674971
37	0x3f938459	1.1524764
38	0x3e51624b	0.20447652
39	0x3e62b9fa	0.22141257
40	0x3ea7c5a4	0.32767975
41	0x3e35f14c	0.17767829
42	0x3f1fc611	0.624116
43	0x3ec48f02	0.38390356
44	0x3ea345d5	0.31889215
45	0x3fba993a	1.4578011
46	0x3f025417	0.5090956
47	0x3e3ec978	0.18631542
48	0x3f345378	0.70439863
49	0x3ee8dd42	0.45481306
50	0x3f1b527f	0.60672754
51	0x3feb18bb	1.8366922
52	0x3e185496	0.14876017
53	0x3f10a3cc	0.56499934
54	0x3f20784a	0.62683547
55	0x3f51fa47	0.8202252
56	0x3f0ee9e8	0.5582566
57	0x3f644224	0.8916342
58	0x3ee23011	0.44177297
59	0x3ecbad91	0.39780858
60	0x3f893062	1.071789
61	0x3f58ab1d	0.846361
62	0x3f8daad5	1.1067759
63	0x3f62cecf	0.88596815
64	0x3f71bcb6	0.94428575
65	0x3f31d886	0.69471014
66	0x3faa7eb6	1.3319919
67	0x3fb06e51	1.3783666
68	0x3f6d7f42	0.92772305
69	0x3f879f44	1.0595479
70	0x3f3bc0a0	0.733408
71	0x3f73b3b2	0.9519607
72	0x3f8d750d	1.1051346
73	0x3f418996	0.75600564
74	0x3fa27de4	1.2694669
75	0x3f49787c	0.7869947
76	0x3f626f6d	0.8845127
77	0x3f76e927	0.9644951
78	0x3f6b4433	0.9190094
79	0x3f8dd04b	1.1079191
80	0x3f7f7f8a	0.99803984
81	0x3f92af8c	1.1459823
82	0x3f523835	0.82117015
83	0x3f6a703c	0.91577506
84	0x3f69acb0	0.91279125
85	0x3f81884c	1.011972
86	0x3fa97f83	1.3242038
87	0x3f5ad2ef	0.8547811
88	0x3f4f0270	0.80863094
89	0x3f6e2bb9	0.93035465
90	0xbd551d29	-0.052029762
91	0xbcd35b18	-0.025800273
92	0xbcc07a29	-0.02349575
93	0x3dd69387	0.10477357
94	0x3ddf3fac	0.10900816
95	0x3d0314de	0.032002322
96	0xbe36964e	-0.17830774
97	0xbd8028ab	-0.06257757
98	0x3d8dfc19	0.069328494
99	0xbd3aea75	-0.045633752
100	0xbe068b34	-0.1313904
101	0x3e90cd45	0.28281608
102	0x3d5e9759	0.054343555
103	0x3e9e1461	0.30874923
104	0x3c5ded1d	0.013545302
105	0x3cd56c05	0.026052484
106	0x3dd4284e	0.1035925
107	0x3d7a7e2f	0.061155494
108	0x3aafc091	0.001340883
109	0x3d420505	0.04736807
110	0x3d413cc5	0.047177095
111	0x3d1416f2	0.036154695
112	0x3c2fa5c7	0.010720677
113	0xbc8cb1da	-0.01717465
114	0x3e42a1c5	0.19007023
115	0xbe1096b3	-0.14119987
116	0xbe19e115	-0.15027268
117	0x3dbdc851	0.09266723
118	0xbdd4c918	-0.10389918
119	0xbc877ec2	-0.016539935
120	0x00000000	0.0
121	0x00000000	0.0
122	0x00000000	0.0
123	0x00000000	0.0
124	0x00000000	0.0
125	0x00000000	0.0
126	0x00000000	0.0
127	0x00000000	0.0
128	0x00000000	0.0
129	0x00000000	0.0
130	0x00000000	0.0
131	0x00000000	0.0
132	0x00000000	0.0
133	0x00000000	0.0
134	0x00000000	0.0
135	0x00000000	0.0
136	0x00000000	0.0
137	0x00000000	0.0
138	0x00000000	0.0
139	0x00000000	0.0
140	0x00000000	0.0
141	0x00000000	0.0
142	0x00000000	0.0
143	0x00000000	0.0
144	0x00000000	0.0
145	0x00000000	0.0
146	0x00000000	0.0
147	0x00000000	0.0
148	0x00000000	0.0
149	0x00000000	0.0
150	0x00000000	0.0
151	0x00000000	0.0
152	0x00000000	0.0
153	0x00000000	0.0
154	0x00000000	0.0
155	0x00000000	0.0
156	0x00000000	0.0
157	0x00000000	0.0
158	0x00000000	0.0
159	0x00000000	0.0
160	0x00000000	0.0
161	0x00000000	0.0
162	0x00000000	0.0
163	0x00000000	0.0
164	0x00000000	0.0
165	0x00000000	0.0
166	0x00000000	0.0
167	0x00000000	0.0
168	0x00000000	0.0
169	0x00000000	0.0
170	0x00000000	0.0
171	0x00000000	0.0
172	0x00000000	0.0
173	0x00000000	0.0
174	0x00000000	0.0
175	0x00000000	0.0
176	0x00000000	0.0
177	0x00000000	0.0
178	0x00000000	0.0
179	0x00000000	0.0
180	0x00000000	0.0
181	0x00000000	0.0
182	0x00000000	0.0
183	0x00000000	0.0
184	0x00000000	0.0
185	0x00000000	0.0
186	0x00000000	0.0
187	0x00000000	0.0
188	0x00000000	0.0
189	0x00000000	0.0
190	0x00000000	0.0
191	0x00000000	0.0
192	0x00000000	0.0
193	0x00000000	0.0
194	0x00000000	0.0
195	0x00000000	0.0
196	0x00000000	0.0
197	0x00000000	0.0
198	0x00000000	0.0
199	0x00000000	0.0
200	0x00000000	0.0
201	0x00000000	0.0
202	0x00000000	0.0
203	0x00000000	0.0
204	0x00000000	0.0
205	0x00000000	0.0
206	0x00000000	0.0
207	0x00000000	0.0
208	0x00000000	0.0
209	0x00000000	0.0
210	0x00000000	0.0
211	0x00000000	0.0
212	0x00000000	0.0
213	0x00000000	0.0
214	0x00000000	0.0
215	0x00000000	0.0
216	0x00000000	0.0
217	0x00000000	0.0
218	0x00000000	0.0
219	0x00000000	0.0
220	0x00000000	0.0
221	0x00000000	0.0
222	0x00000000	0.0
223	0x00000000	0.0
224	0x00000000	0.0
225	0x00000000	0.0
226	0x00000000	0.0
227	0x00000000	0.0
228	0x00000000	0.0
229	0x00000000	0.0
230	0x00000000	0.0
231	0x00000000	0.0
232	0x00000000	0.0
233	0x00000000	0.0
234	0x00000000	0.0
235	0x00000000	0.0
236	0x00000000	0.0
237	0x00000000	0.0
238	0x00000000	0.0
239	0x00000000	0.0

lstm_initial_h f4 [1, 1, 30]
0	0x00000000	0.0
1	0x00000000	0.0
2	0x00000000	0.0
3	0x00000000	0.0
4	0x00000000	0.0
5	0x00000000	0.0
6	0x00000000	0.0
7	0x00000000	0.0
8	0x00000000	0.0
9	0x00000000	0.0
10	0x00000000	0.0
11	0x00000000	0.0
12	0x00000000	0.0
13	0x00000000	0.0
14	0x00000000	0.0
15	0x00000000	0.0
16	0x00000000	0.0
17	0x00000000	0.0
18	0x00000000	0.0
19	0x00000000	0.0
20	0x00000000	0.0
21	0x00000000	0.0
22	0x00000000	0.0
23	0x00000000	0.0
24	0x00000000	0.0
25	0x00000000	0.0
26	0x00000000	0.0
27	0x00000000	0.0
28	0x00000000	0.0
29	0x00000000	0.0

lstm_initial_c f4 [1, 1, 30]
0	0x00000000	0.0
1	0x00000000	0.0
2	0x00000000	0.0
3	0x00000000	0.0
4	0x00000000	0.0
5	0x00000000	0.0
6	0x00000000	0.0
7	0x00000000	0.0
8	0x00000000	0.0
9	0x00000000	0.0
10	0x00000000	0.0
11	0x00000000	0.0
12	0x00000000	0.0
13	0x00000000	0.0
14	0x00000000	0.0
15	0x00000000	0.0
16	0x00000000	0.0
17	0x00000000	0.0
18	0x00000000	0.0
19	0x00000000	0.0
20	0x00000000	0.0
21	0x00000000	0.0
22	0x00000000	0.0
23	0x00000000	0.0
24	0x00000000	0.0
25	0x00000000	0.0
26	0x00000000	0.0
27	0x00000000	0.0
28	0x00000000	0.0
29	0x00000000	0.0

fc_MatMul_W f4 [30, 10]
0	0xbef1a5c1	-0.47196773
1	0x3f7938b2	0.97352135
2	0xbf004e7c	-0.5011976
3	0x3f8ec037	1.1152409
4	0xbefa71e5	-0.4891502
5	0xbf2db5d3	-0.67855567
6	0xbf3c0f26	-0.73460615
7	0xbc91ad0d	-0.017782712
8	0xbf1471a3	-0.57985896
9	0x3f91957e	1.1373746
10	0x3fc1961d	1.5123936
11	0xbea0fb5f	-0.3144178
12	0x3f30848f	0.6895227
13	0xbf870082	-1.054703
14	0xbf17880d	-0.5919197
15	0xbf5e0c8a	-0.86737883
16	0x3f9cecb0	1.2259731
17	0xbe63c360	-0.22242498
18	0xbf66e4f9	-0.90193135
19	0x3bbe6cff	0.005811333
20	0xbf25fe8f	-0.6484155
21	0x3f8ba4ab	1.0909628
22	0x3f4ee816	0.80822885
23	0x3df296b4	0.118451506
24	0xbf80281b	-1.0012239
25	0x3eb62674	0.35576212
26	0xbed9d2b8	-0.42543578
27	0x3ec731fe	0.3890533
28	0x3ed209d7	0.41023132
29	0xbfa64368	-1.2989321
30	0x3f4413f6	0.7659296
31	0x3fc327e2	1.5246546
32	0x3f3d5613	0.73959464
33	0xbf9df3d1	-1.2340032
34	0xbeae23da	-0.34011728
35	0xbf3fad20	-0.7487354
36	0xbe9b7d6f	-0.30369136
37	0x400332f4	2.049985
38	0xbf1e99e4	-0.6195357
39	0xbf6e5d9a	-0.93111575
40	0xbf37de45	-0.7182353
41	0xbed4da08	-0.41572595
42	0xbf796372	-0.97417367
43	0x3faea968	1.3645449
44	0x3f292ecb	0.66087025
45	0x3f725950	0.9466753
46	0xbf89d333	-1.0767578
47	0x3f2bd5f3	0.67123336
48	0xbfcc13ae	-1.5943506
49	0x3fbdd80a	1.4831555
50	0x3f85bbc7	1.044793
51	0xbe8e7e07	-0.27830526
52	0x3ed80145	0.4218847
53	0x3f26bd07	0.6513218
54	0x3f1f4f6c	0.62230563
55	0xbfa52b22	-1.2903788
56	0xbf8a7184	-1.0815892
57	0xbf891df8	-1.0712271
58	0x3f83117c	1.0239711
59	0x3dee4bdb	0.11635562
60	0xbe7683ac	-0.24073666
61	0x3f779884	0.96717095
62	0x3eda5d01	0.4264908
63	0x3faf55e9	1.3698093
64	0xbf519d8a	-0.8188101
65	0xbfaa5911	-1.3308431
66	0xbf32cd7c	-0.69844794
67	0xbeb519bd	-0.353712
68	0x3f434d87	0.7629017
69	0x3e8941ec	0.26808107
70	0x3dfc0da3	0.123072885
71	0x3e9e0d04	0.30869305
72	0x3d978476	0.07398312
73	0x3d0807a3	0.033210408
74	0x3fc6ddd5	1.5536448
75	0xbf2b50c9	-0.66920143
76	0x3eec56ce	0.46159977
77	0xbf1b6f12	-0.60716355
78	0xbf03208e	-0.5122155
79	0xbfa56fb0	-1.2924709
80	0xbfd6d955	-1.6785074
81	0xbe65c329	-0.22437729
82	0x3f7c891e	0.98646724
83	0x3f035d27	0.51314014
84	0xbf23a4df	-0.6392345
85	0x3f06093a	0.5235783
86	0xbf900ce6	-1.1253936
87	0x3f490989	0.78530174
88	0x3f41cfb5	0.7570756
89	0xbf8b0407	-1.0860604
90	0xbe7a0d51	-0.24419142
91	0xbf9e0ec8	-1.2348261
92	0xbf82fa7d	-1.0232693
93	0xbe1fc107	-0.15600978
94	0x3f3116d0	0.69175434
95	0xbe670a92	-0.22562626
96	0xbf049cbc	-0.5180166
97	0x3d7748b6	0.060372077
98	0x3f9f669f	1.2453192
99	0x3f34f463	0.70685405
100	0xbd916984	-0.07100204
101	0x3f075a3c	0.5287206
102	0x3e9e92b3	0.30971298
103	0xbf266bd4	-0.6500828
104	0x3f9aaf99	1.2084838
105	0xbf7c3da6	-0.9853157
106	0xbe78bde4	-0.24291188
107	0x3fccc96b	1.5998968
108	0xbf72be52	-0.94821656
109	0x3f631ab8	0.88712645
110	0x3f524565	0.8213714
111	0xbedf75e3	-0.43644628
112	0x3f6fe65d	0.9371088
113	0x3f06f142	0.5271188
114	0xbfa7fb7e	-1.3123624
115	0x3f581fa4	0.8442328
116	0xbf65b29c	-0.8972566
117	0x3f98d227	1.1939133
118	0xbfa61201	-1.2974244
119	0xbf07f7e9	-0.53112656
120	0xbf2c8856	-0.6739553
121	0x3f50ea5b	0.816076
122	0x3de1bcd5	0.11022345
123	0xbf1513f6	-0.5823358
124	0x3fb365ef	1.4015483
125	0x3df348e4	0.11879137
126	0x3f3e89ad	0.74428827
127	0x3dd53918	0.104112804
128	0xbee31281	-0.44350055
129	0xbf829ae9	-1.0203525
130	0xbe0a24d3	-0.1349061
131	0x3f94c822	1.1623576
132	0x3fb08223	1.3789715
133	0xbfeae97b	-1.8352503
134	0x3f896ec7	1.0736932
135	0x3efe7598	0.49699092
136	0xbeeddaca	-0.46455985
137	0xbf82c66c	-1.0216804
138	0xbe3c1c03	-0.1837006
139	0x3defab23	0.117025636
140	0x3faf0a59	1.3675033
141	0xbf41cc17	-0.7570204
142	0xbf3aa3e4	-0.7290633
143	0xbe995ee0	-0.29955196
144	0x3e1a3085	0.15057571
145	0xbf11bfa4	-0.56933045
146	0x3fcea312	1.6143515
147	0x3fab18f3	1.3366989
148	0xbf4e01a7	-0.8047127
149	0xbf3f4b45	-0.7472423
150	0x3f15d737	0.58531517
151	0xbf4fd34a	-0.81181777
152	0xbe5092d3	-0.20368509
153	0xbf95717d	-1.1675259
154	0xbf2cb618	-0.67465353
155	0x3fbd77f6	1.4802234
156	0x3ec97af2	0.39351612
157	0xbf7a7395	-0.97832614
158	0x3de1604d	0.11004696
159	0x3f23675a	0.63829577
160	0xbf25a6b9	-0.64707524
161	0xbf2a98b9	-0.66639286
162	0x3f815cdb	1.0106462
163	0x3f5e731f	0.8689441
164	0xbf4df08b	-0.80445164
165	0x3f2a1845	0.6644328
166	0x3d81da08	0.06340414
167	0xbd6dc2ae	-0.05804699
168	0x3f2ca0c2	0.67432797
169	0xbfdb875e	-1.7150686
170	0xbf5cff55	-0.86327106
171	0x3e520277	0.20508753
172	0x3f212185	0.6294177
173	0xbfac46e6	-1.3459136
174	0xbf720ff0	-0.9455557
175	0x3f035fe4	0.5131819
176	0x3f1bd67d	0.6087416
177	0x3f42d74c	0.76109767
178	0x3f055f70	0.5209875
179	0x3f4b9086	0.795174
180	0xbdb9d32b	-0.0907348
181	0x3e4a8728	0.1977812
182	0xbef5d50b	-0.480141
183	0xbe72167b	-0.23641388
184	0xbf3fa1f0	-0.7485647
185	0xbf5d200b	-0.8637702
186	0x3f85a38c	1.0440536
187	0x3fb43835	1.4079653
188	0xbee67e61	-0.45018294
189	0xbdf6f0a4	-0.12057617
190	0xbf739a2d	-0.9515713
191	0x3ed1b2a8	0.40956616
192	0xbfc33cd2	-1.5252936
193	0xbf4b86d9	-0.79502636
194	0x3f6a120f	0.91433805
195	0x3c9809b1	0.018559309
196	0x3e546bad	0.207442
197	0x3eab84ba	0.334997
198	0x3f6e230c	0.9302223
199	0x3f369c3d	0.7133215
200	0xbe3b098f	-0.18265365
201	0xbf57c5e6	-0.84286344
202	0xbf6d416e	-0.9267796
203	0x3e0f8280	0.14014626
204	0x3f6e6884	0.9312823
205	0x3e35692b	0.177159
206	0xbf8fff57	-1.1249799
207	0x3f4b75c6	0.79476583
208	0xbefb66a0	-0.49101734
209	0x3f737942	0.951069
210	0x3f47a03b	0.7797887
211	0xbf772744	-0.9654429
212	0x3f99e8bb	1.2024149
213	0x3ebf7963	0.37397298
214	0xbf692796	-0.9107603
215	0xbf96bd68	-1.1776552
216	0xbfb8013f	-1.437538
217	0x3f6a5fc2	0.91552365
218	0x3d05a54d	0.032628346
219	0x3f6be30a	0.9214331
220	0xbe1e8c0b	-0.1548311
221	0xbd9ccd3d	-0.076563336
222	0x3f9c3952	1.2204993
223	0x3edbba0e	0.42915386
224	0xbf40ab7e	-0.75261676
225	0xbf8ba042	-1.0908282
226	0xbe121116	-0.1426433
227	0xbf834ab3	-1.0257171
228	0x3e157693	0.14596014
229	0x3fa67963	1.3005794
230	0x3f79c6eb	0.9756915
231	0xbfa8afe7	-1.3178681
232	0xbfa03568	-1.2516298
233	0x3ea728b6	0.32648247
234	0xbf945d9c	-1.1591067
235	0x3f8705b7	1.0548619
236	0x3f4ed5dd	0.8079508
237	0xbf54535f	-0.82939714
238	0x3f762740	0.9615364
239	0x3eafb59e	0.3431825
240	0xbf9262a7	-1.1436356
241	0x3f6177bb	0.8807332
242	0xbf9690d9	-1.1762954
243	0xbf77d729	-0.96812683
244	0xbdadedb5	-0.08492605
245	0x3ebf52b3	0.37367782
246	0xbf32adad	-0.6979626
247	0x3f577cde	0.8417491
248	0x3f46d66b	0.77670926
249	0x3e9bdae7	0.30440447
250	0xbf24071a	-0.64073336
251	0xbf95d08b	-1.1704267
252	0x3fb0b18b	1.3804182
253	0xbf70d1ae	-0.94069946
254	0x3f30d439	0.69073826
255	0xbfb904c8	-1.4454584

fc_Add_B f4 [10]
0	0xbe663239	-0.22480096
1	0x3e2f1fa7	0.17101918
2	0x3ec26d44	0.37973988
3	0x3dddb2b3	0.108251
4	0xbe09f81c	-0.13473552
5	0x3e05a769	0.13052143
6	0xbe213d8e	-0.15746137
7	0x3e86f2b8	0.26357055
8	0xbf090e6e	-0.5353764
9	0x3b493ecc	0.0030707596
