StarV/util/data/nets/NAHS2024_RNN/MNIST_GRU30net.onnx (onnx, 154726 bytes, 6 tensors)

gru_W f4 [1, 90, 392]
00000000: 439a 6393 f863 8433 e5f4 91bb 380e 903d
00000010: aa09 943d b80f a6bc c6f3 e2bd 431e 14bc
00000020: 62ee 0f3d 3e4b b7bd 98c6 9bbe f68c c2be
00000030: a287 8bbe 1c42 67be cb12 26be ec6e f3bc
00000040: 507d 633e 152c 303e c7b3 80bd 89b2 b6bc
00000050: ebd7 b63d 19a7 70bd 4eb8 00be 1bab 70be
00000060: d6a1 0cbe 4734 babd 627b d4bc 374c 0935
00000070: 9364 1223 40e8 6929 78b5 a03c f455 8d3d
00000080: b944 d73d fafd 573d 3ec7 9c3d 1097 4c3e
00000090: 0a36 6d3e 30b0 c13c 688d a6bd 53ee 00be
000000a0: 241a 08be 1f45 1abe 05af 3bbe 59d6 4abd
000000b0: 66e5 a53d 5578 cb3d c007 3abd 88ab 71bb
000000c0: d0f3 653d eaea 1cbc 9c97 33bc 385e 83bd
000000d0: f804 24be f518 8fbd 9e26 3e3d f4ed 13bc
000000e0: 78fd 0fa5 0816 f5aa 770c 783b 5289 a43c
000000f0: 5ba1 a63d ebe4 253e 6cb7 693e e496 343e
00000100: 84a9 823e 6ac1 ff3d f8de 1c3e 6a05 3d3e
00000110: 2668 823e 1cbc 503d 4851 96bd d6ee 2fbb
00000120: cacd b63d 16de 60bd 3786 213d dab6 bf3d
00000130: 1562 a23d abc6 89bd 114e 6cbb 27a4 e43c
00000140: 7004 f33c d998 393b cdf4 253c 81dd 2fba
00000150: a4fd 0000 c4b6 f6ba ef3c 1c3a 1724 863c
00000160: fcd7 933d 19ec 163e 24fd 383e 2d6f 9c3e
00000170: 088b 613e 546c 583e c289 ac3e 2470 a13e
00000180: ecd3 933e 42c8 0a3e 146f d73d 7a5a af3d
00000190: 0149 6a3d b241 093e 43cf 8b3d 3ffc 963d
000001a0: 4008 96bc 8b51 47bd 8195 85bd c216 943c
000001b0: 7a53 64bc 6a3f 113c 1b9c 203a 727b edba
000001c0: 3893 802d 40dd be37 d50c 5b3b 6b77 053d
000001d0: fcd7 b03c 18a9 503d 1bbb 443e e031 9b3e
000001e0: 6e74 4f3e 4e81 0f3e 7831 6f3e 4051 813e
000001f0: 4c1e 8f3e f6d6 063e ca16 b13d f7f8 9a3d
00000200: 4196 103e b310 ad3d 00c0 983d 01c7 833c
00000210: 1aa2 6cbd b9e4 fabd 49ca a8bd 4ee2 60bd
00000220: 1770 003b b30f 4e3d 6b1a 16bb c9ef 63bb
00000230: 07b6 401e 585f 9db9 7827 223b 4339 873d
00000240: 518f 64bd 1d02 3fbc 4f7f 553d 55f5 4a3e
00000250: 354b d53d 81e7 b53d 8eb2 163d 9650 c23d
00000260: fcb5 3cbd 275a b8bd dfd1 ccbd dd64 a2bd
00000270: 8474 a83a 9cef 1abd 45eb ac3d bb38 5dbc
00000280: 45a6 9cbc 5e5e ee3c 9575 0bbe b91d 03be
00000290: 8aa0 1f3d e8b5 a33d 3063 4c39 0d82 9537
000002a0: fd00 0100 a7d3 083b 097c 353b 77ec 3a3d
000002b0: 3736 873d 1313 193d 2c1a 123d c971 cdbd
000002c0: 25cb f5bd d425 7fbd 6976 85be 93b7 f6bd
000002d0: 5caa 66be 3c0b a3be 3f89 67be 16b6 38be
000002e0: 490a 05bd bc8e 833d aa24 313d 8207 843d
000002f0: fd00 0ebd 2d90 d1bc 774a b5bd 09f5 a0bd
00000300: bbc4 e63d 8f71 bb3d 3f78 edbc e302 b335
00000310: 059c 56b0 bf63 0cb3 6b87 ba37 1c2e 953c
00000320: 1971 e0bc 627a 0ebd aeb6 0abe 93ca 37be
00000330: eabc c5be 80bc cabe 154d c0be 731a a7be
00000340: c246 aabe dc27 75be 68f7 97be dc00 5bbe
00000350: cf3a d0bd 9d6e a1bd 0ffc 7bbd 9c05 c7bd
00000360: 87a8 83bd 095f 42ba 0fd6 b6bd b722 a7bd
00000370: 6c92 2f3e 9ff7 373d a1ce 15bd 1146 4834
00000380: a356 1b3c 05f6 4d35 afe5 5f39 9e0e 86ba
00000390: 0856 b6bc 3c8c abbd 011d 68bd 9408 5bbd
000003a0: bc45 2ebe 5758 48be 0225 53be 4a7e dbbd
000003b0: 7263 75be d7b7 84be 0b7c 20be 97b3 c6bd
000003c0: 7b7e adbd 81ef 4b3c d89e a6bc dcdd 50bd
000003d0: 5af7 233d 6da9 f6bc 4fca 873a 05a4 5d3d
000003e0: 48c7 a83d d3b9 9dba 6bdd 19bc eae4 952a
000003f0: 536a 8a39 c306 1bbc 221d 543a f20a 0a3d
-2.8727485e-27 6.164913e-08 -0.0044542425 0.07033962 0.07228406 -0.020271167 -0.11081652 -0.009040418
0.03513945 -0.08949898 -0.30424953 -0.3799817 -0.27251917 -0.22583812 -0.16218106 -0.029715978
0.22215772 0.17204316 -0.0628429 -0.02230193 0.08927902 -0.058753107 -0.12570307 -0.23502772
-0.1373361 -0.09092002 -0.02593774 5.1147384e-07 7.935973e-18 5.1937838e-14 0.019617781 0.0690116
0.10511155 0.052732445 0.0765519 0.19979501 0.23165146 0.023643583 -0.0813244 -0.12590913
-0.13291222 -0.1506543 -0.18328483 -0.049520824 0.08100395 0.09935061 -0.045417547 -0.0036875922
0.05614072 -0.009577492 -0.010961439 -0.06414455 -0.1601752 -0.06987182 0.046423547 -0.0090289
-1.2489151e-16 -4.353603e-13 0.0037849227 0.02008501 0.08136245 0.16200607 0.22823876 0.17635685
0.25519955 0.12488063 0.15319431 0.18459097 0.25470084 0.050960645 -0.07339722 -0.0026845238
0.0892597 -0.054899298 0.039434638 0.09361048 0.07928864 -0.06727346 -0.0036057273 0.027910305
0.029665202 0.0028319864 0.010129166 -0.0006708727 9.0989e-41 -0.0018822779 0.00059600075 0.01637463
0.0721893 0.14738502 0.18065315 0.3055357 0.22025692 0.21135074 0.3369885 0.3153087
0.2887262 0.13552955 0.10519233 0.08562179 0.05719853 0.13403967 0.068266414 0.07372331
-0.01831448 -0.04866175 -0.06522656 0.018077258 -0.013935918 0.008865217 0.0006126777 -0.0018118455
1.4617293e-11 2.2752793e-05 0.0033424397 0.03258459 0.021587364 0.05094251 0.19212 0.3031149
0.20259258 0.1401417 0.23358715 0.252573 0.27952802 0.13167939 0.08646925 0.075670175
0.14119817 0.08450451 0.07458496 0.016086103 -0.05777178 -0.12250657 -0.08241708 -0.05490332
0.001959806 0.05030794 -0.002290393 -0.0034780374 1.0202038e-20 -0.0003001641 0.0024742763 0.06602719
-0.05580074 -0.011658219 0.052123364 0.19820149 0.10414735 0.088820465 0.036791377 0.09488027
-0.04607199 -0.0900157 -0.10000967 -0.079293944 0.0012852107 -0.037826166 0.084433116 -0.013502295
-0.019122252 0.029097732 -0.13619073 -0.12804307 0.03897146 0.0799368 0.00019491906 1.7822744e-05
9.219e-41 0.0020878108 0.002769234 0.045635667 0.066021375 0.037371706 0.03566949 -0.100314684
-0.12001637 -0.062291935 -0.26066902 -0.12046733 -0.22525924 -0.3184451 -0.22610949 -0.1803821
-0.03248051 0.06423709 0.043247856 0.064467445 -0.03466891 -0.025581444 -0.08852094 -0.07859237
0.11267992 0.09152519 -0.028988002 1.3337379e-06 -7.8074464e-10 -3.268701e-08 2.2235987e-05 0.018210463
-0.02739768 -0.034784682 -0.1354625 -0.1794837 -0.38620692 -0.3959694 -0.3755881 -0.32637367
-0.3325711 -0.23940986 -0.29680943 -0.21387047 -0.10167467 -0.07882426 -0.06151968 -0.09717867
-0.064286284 -0.0007414674 -0.08927547 -0.08160918 0.171457 0.044913884 -0.03657401 1.8651942e-07
0.009481105 7.6726457e-07 0.00021352501 -0.0010227745 -0.02225782 -0.08376357 -0.056668285 -0.053474978
-0.17018789 -0.19564949 -0.20619586 -0.10717447 -0.23963717 -0.2592151 -0.15672319 -0.09702223
-0.0847139 0.012447239 -0.020339414 -0.05099283 0.040030815 -0.030110085 0.0010359975 0.0541115
0.08241135 -0.0012033529 -0.009391169 2.6626558e-13 0.0002640063 -0.009462061 0.00080914993 0.033701845

gru_R f4 [1, 90, 30]
00000000: 2fa1 1ebe 7a49 983c 0bc4 5dbe 9f30 21bc
00000010: 3342 77bc 0069 663c 83d8 d5bd 06f1 35be
00000020: 5ad3 143e 1903 d23c 9158 b5bd 9c61 ab3e
00000030: bf8b a4bd 1a9a a2bd 8517 cc3c 511f 29be
00000040: 94c6 653e a568 ac3d 6599 b3bd 8d9e 973d
00000050: 0b16 96bd 5db7 4e3d e0b5 973e 9cc4 33bf
00000060: 5d05 523e 6f5f f9bd 275b bbbe 21d8 2abe
00000070: efc7 bc3e a03b 5d3e cffd 023e b2cc 863d
00000080: 4d39 903d 454a 1bbe ec93 2abe 59f1 bbbd
00000090: e4c0 d43e 6b34 d4bd 54e0 b13b 3a51 68be
000000a0: 55ce f33d 53bf 653e 8ba9 fb3c 0044 bb3c
000000b0: c2da 573e 6748 cf3d 5019 263e c5fb 05be
000000c0: ea3f 65bd acb6 283e cdb7 9fbd b836 31bd
000000d0: 4401 2abe c780 393e 9d76 8ebe e3d5 553e
000000e0: 46b5 0ebe 866c b9be 1265 9dbd a875 8b3e
000000f0: a67c 643d 87ab ac3d 9d3e 843d d50e 2a3e
00000100: 9b02 023d 04b0 0bbe 7601 95be d1e0 a63e
00000110: 97ae 0bbd 3abe 54bd 46db 44be c3b8 5a3e
00000120: 6537 f63d 5293 3fbe df7a 043e 4cd3 58bd
00000130: 0f7d c2bd 2b1f ddbd c11a ed3c 1303 8b3d
00000140: bba9 4d3d f8cc 6ebd 36e9 a73d e119 c73d
00000150: c064 ffbd e38e b83d 0c91 edbc fc28 c5bb
00000160: b758 a23e 314c f2bd 45a4 42bd 6729 36be
00000170: 31d9 d53d fe66 693e 4798 7b3c 59ba 283e
00000180: da00 cebd e33f 8e3d a2d6 8dbd 3367 8dbe
00000190: 907e 10be e6b1 6bbd c202 c2bc fe98 07be
000001a0: 5a7f 25bd 595f 223e f300 b4bd d633 343e
000001b0: 6584 453e dc6c 6f3d cf73 34be 3cee c3bd
000001c0: e31b 3ebe 170f 4c3e 0d5a cbbb 5103 d83d
000001d0: 9c36 7e3e fea0 483f 43c4 ccbe 4274 f5bd
000001e0: 6349 75bd a4b5 8ebd 63a2 6a3d 017d f53d
000001f0: 5ce5 8e3e 4a8b 90be b31e 223e 359e 8bbe
00000200: eaa2 043e 0f04 793d 3e7b b9bd dc95 823d
00000210: 1048 af3e 6328 93be 99db 5dbd 5476 363e
00000220: 935c 74be 683d b03d 4266 fcbd cdf6 af3d
00000230: 0966 5b3d e789 4b3e 3252 813e 55ec 56be
00000240: 7432 e53d 348f 113e 8513 a4bd a330 8ebe
00000250: 5868 00be eef7 fc3d ce3e 8bbd 7038 5dbe
00000260: eaed e13d da79 eabd ba12 b6bd ed69 8b3d
00000270: 1d9a bc3d 1617 103e d6b6 33be dd2a 323e
00000280: 3107 043e 2d9f 40be db80 20be a2d5 bd3d
00000290: 1bc9 65bb 4965 d3bd aea0 1ebb f62d 37bc
000002a0: 4cf9 3ebd b106 e7bd b3b4 a0ba 251e 803d
000002b0: 76a9 6d3c 9187 b13e 75a2 143d 44da d4bd
000002c0: f40c a93e a89a fe3d a1d6 b7bd fa3d 68bd
000002d0: 1ce7 973d 210e 61be e573 19bc 03be 113e
000002e0: c865 333d 7295 0abe 8369 703d e9c0 e4be
000002f0: 2d7b 41bd d239 9e3d 98f1 943e 35cc dd3e
00000300: 5277 e0be b0a2 42ba 272c 16bd f5b4 fa3e
00000310: 4b6b d0bc 80ef 913e 7ab9 a53e a5eb 263e
00000320: 82d6 0c3e e915 d2bc 0000 1dbe 2cdd a4be
00000330: 1a06 4dbd 47e3 b63e fb8c 2ebe 50d2 bcbd
00000340: 0676 91be 667a cd3e 5567 d33d a0d6 a4bd
00000350: a335 703e 0e6a 4cbb 9c27 d73d 07f2 0abe
00000360: 399b 563e a836 8dbb 15df e3bc cc72 e13d
00000370: a3e2 6e3d f086 b73d c20c 2abd 1080 013e
00000380: 95f6 aa3b ebe8 ac3e b6e7 9b3d 7e4b f03d
00000390: 38cc 073c 86b1 4fbd 83c8 853d 3e44 883c
000003a0: f77f 1e3e f7e9 e3bd 9772 023e 3b4d db3d
000003b0: 46e5 0d3e fc41 afbd a678 1abe af7c af3d
000003c0: 332d e03e df5c e63d 8a78 1c3f 91ac fd3d
000003d0: 8e5f 63bd bcee 3ebf dfe7 cd3e 563d 87be
000003e0: bb66 a9bd 7f0d 133c 692e b9bd e4de 7c3e
000003f0: d9e4 733e 5b31 67be 91db b53e 9f04 903f
-0.15491174 0.018589724 -0.21656816 -0.009838252 -0.015091467 0.01406312 -0.10441687 -0.17767724
0.14533749 0.025636243 -0.08854783 0.33472908 -0.08034467 -0.07939549 0.024913559 -0.16515853
0.22439033 0.08418397 -0.08769492 0.07403288 -0.07328423 0.050467838 0.29630947 -0.7022188
0.20509858 -0.12176406 -0.3659298 -0.16684009 0.36871287 0.21604776 0.12792133 0.06582011
0.07042179 -0.1516505 -0.1665799 -0.09176893 0.41553414 -0.103615604 0.0054283533 -0.22687235
0.11904589 0.22436266 0.030720493 0.022859573 0.21079543 0.101212315 0.16220593 -0.13084324
-0.055969156 0.16475934 -0.07798729 -0.043265074 -0.16602045 0.18115531 -0.2782487 0.20882373
-0.13936338 -0.3621561 -0.07685293 0.27238202 0.055782937 0.08431154 0.06457255 0.1660722
0.031740766 -0.13641363 -0.29102677 0.32593396 -0.03410205 -0.051939227 -0.19224271 0.21359544
0.120222844 -0.18708542 0.12937497 -0.052935883 -0.09496509 -0.107969604 0.028943421 0.06787696
0.050210696 -0.058300942 0.08198778 0.09721733 -0.124703884 0.090116285 -0.028999828 -0.0060168486
0.3170831 -0.118309386 -0.04751994 -0.17789231 0.104418166 0.22793195 0.01535613 0.16477336
-0.10058756 0.06945779 -0.069257036 -0.27617797 -0.1411078 -0.057542704 -0.023682956 -0.13241956
-0.040404655 0.15856685 -0.087892435 0.17597899 0.19288786 0.058453426 -0.17622302 -0.09566924
-0.18565325 0.19927631 -0.0062058032 0.105475076 0.2482552 0.78370655 -0.39993486 -0.11985065
-0.05988444 -0.06968239 0.05728377 0.11986733 0.27909362 -0.2823127 0.15832023 -0.2726914
0.12952772 0.060794886 -0.0905671 0.0637624 0.34234667 -0.2874175 -0.054164503 0.17818576
-0.2386344 0.08605462 -0.12324192 0.085919954 0.053564105 0.19876824 0.25258023 -0.20988591
0.11191264 0.14214784 -0.080115356 -0.27771482 -0.12539804 0.12351976 -0.067990884 -0.2160356
0.11031707 -0.114490226 -0.088902906 0.06807313 0.09209082 0.14071307 -0.17550215 0.17399164
0.12893368 -0.1881072 -0.15674154 0.09269263 -0.0035062495 -0.10322053 -0.002420466 -0.011180392
-0.046624467 -0.11280573 -0.0012260884 0.062557496 0.014505735 0.3467374 0.036287744 -0.10393193
0.33017695 0.12431842 -0.08976484 -0.05669973 0.074171275 -0.21978046 -0.00936601 0.1423264
0.043798238 -0.13533571 0.058694374 -0.4467843 -0.04723661 0.07725872 0.2909057 0.4331986
-0.43841034 -0.0007424755 -0.0366632 0.48966184 -0.025441786 0.28503036 0.3236807 0.16300829
0.13753703 -0.025645213 -0.15332031 -0.3219999 -0.050054647 0.35720274 -0.17045967 -0.092198014
-0.28410357 0.40132445 0.103224434 -0.08048749 0.23457961 -0.0031191143 0.10505602 -0.13568889
0.2095765 -0.004309494 -0.027816335 0.11008224 0.058321606 0.08961284 -0.041516073 0.12646508
0.005217383 0.33771452 0.07612555 0.11733149 0.008288436 -0.05070641 0.06532385 0.016634103
0.15478502 -0.1112861 0.12739025 0.1070809 0.13856992 -0.085575074 -0.15085086 0.085687034
0.43784484 0.112481825 0.6112143 0.1238643 -0.05551105 -0.7458303 0.40215966 -0.26413983
-0.082715474 0.008975386 -0.09042055 0.24694401 0.23817767 -0.22577421 0.35519078 1.125141

gru_B f4 [1, 180]
00000000: c824 d6be 5b0e 9fbe df9b 3fbe 8982 94be
00000010: c3bd 92bc e420 063e 207f 3cbe b8c3 4abe
00000020: d4e3 dc3c ebe5 acbd 4e3f 7fbd 8795 5dbe
00000030: 1473 32be 889d fabe b34f 6dbe 0950 f5be
00000040: 0cc0 11bd 36de 88bd 3ce8 7cbe 1a69 4ebe
00000050: 7020 cfbc 13bc d4bd b96f a4be 3a43 6f3d
00000060: 55fe 79bd 6b35 e5be e3e2 84be 7b78 27be
00000070: 7efa 9abd 8560 abbe 25ff ea3d bbbf ea3d
00000080: 1f62 ee3c 571d 983e 0d63 d6bb b759 ef3c
00000090: 2783 323e af35 4ebe a834 16be 50af 373c
000000a0: b914 133e 975b b73d 04c7 adbc 1ae8 263e
000000b0: ed50 7a3e 06fd fb3d f82c 3e3c 909b 2a3e
000000c0: c957 3c3e fe88 acbd 57a9 633e 711e 1bbe
000000d0: d458 1d3d b321 f93d 5e1b a33d dea1 443e
000000e0: 3d6e 22be f89d 24be caae a33e a401 853e
000000f0: 2c4f f5bd edf3 11bd f455 1b3e f7f7 82bd
00000100: e46a 74be 2a3b 41bd 90d9 72bc b13a 953e
00000110: 0840 abbe 1ee9 cebd ff16 24bd 2aa2 5a3c
00000120: a009 b33e 5003 8bbd f2e9 6dbe adea 4ebe
00000130: 2ffe 983e b4e2 87bd 04ee bf3d 6300 8a3c
00000140: a9f0 a23d dae3 6ebe 1c63 9bbe 6f2d 573d
00000150: f2cb 22bb 73f2 6dbe 0de2 6abb 1ec6 77be
00000160: 5bcc d63d ccbb 793e 0000 0000 0000 0000
00000170: 0000 0000 0000 0000 0000 0000 0000 0000
00000180: 0000 0000 0000 0000 0000 0000 0000 0000
00000190: 0000 0000 0000 0000 0000 0000 0000 0000
000001a0: 0000 0000 0000 0000 0000 0000 0000 0000
000001b0: 0000 0000 0000 0000 0000 0000 0000 0000
000001c0: 0000 0000 0000 0000 0000 0000 0000 0000
000001d0: 0000 0000 0000 0000 0000 0000 0000 0000
000001e0: 0000 0000 0000 0000 0000 0000 0000 0000
000001f0: 0000 0000 0000 0000 0000 0000 0000 0000
00000200: 0000 0000 0000 0000 0000 0000 0000 0000
00000210: 0000 0000 0000 0000 0000 0000 0000 0000
00000220: 0000 0000 0000 0000 0000 0000 0000 0000
00000230: 0000 0000 0000 0000 0000 0000 0000 0000
00000240: 0000 0000 0000 0000 0000 0000 0000 0000
00000250: 0000 0000 0000 0000 0000 0000 0000 0000
00000260: 0000 0000 0000 0000 0000 0000 0000 0000
00000270: 0000 0000 0000 0000 0000 0000 0000 0000
00000280: 0000 0000 0000 0000 0000 0000 0000 0000
00000290: 0000 0000 0000 0000 0000 0000 0000 0000
000002a0: 0000 0000 0000 0000 0000 0000 0000 0000
000002b0: 0000 0000 0000 0000 0000 0000 0000 0000
000002c0: 0000 0000 0000 0000 0000 0000 0000 0000
-0.41824937 -0.3106564 -0.18711804 -0.2900584 -0.017912751 0.13098484 -0.1840787 -0.19801223
0.026964106 -0.08442291 -0.06231623 -0.21639071 -0.17426711 -0.48948312 -0.23174934 -0.47912624
-0.03558354 -0.066830084 -0.24697965 -0.2015728 -0.025284022 -0.10387435 -0.32116488 0.05841372
-0.061033566 -0.44767317 -0.2595435 -0.16354553 -0.07567309 -0.33472076 0.11474446 0.11462351
0.029099522 0.29709885 -0.0065425695 0.029217584 0.17432843 -0.20137666 -0.14668524 0.011211231
0.14363374 0.08953016 -0.021213062 0.16299477 0.24444933 0.1230412 0.011607401 0.16660905
0.18392862 -0.08424567 0.22232567 -0.15148331 0.03841479 0.12164631 0.07964204 0.19202372
-0.15862365 -0.16075885 0.3196929 0.25977814 -0.119779915 -0.035633016 0.15169507 -0.06394952
-0.238689 -0.047175564 -0.014822379 0.2914634 -0.3344729 -0.10103057 -0.040060993 0.013344327
0.3496828 -0.06787741 -0.23233774 -0.20206709 0.29881427 -0.06635037 0.0937157 0.016845888
0.079560585 -0.23329106 -0.30349052 0.052533563 -0.00248408 -0.23237018 -0.0035840303 -0.2419667
0.104881965 0.24388045 0.0 0.0 0.0 0.0 0.0 0.0
0.0 0.0 0.0 0.0 0.0 0.0 0.0 0.0
0.0 0.0 0.0 0.0 0.0 0.0 0.0 0.0
0.0 0.0 0.0 0.0 0.0 0.0 0.0 0.0
0.0 0.0 0.0 0.0 0.0 0.0 0.0 0.0
0.0 0.0 0.0 0.0 0.0 0.0 0.0 0.0
0.0 0.0 0.0 0.0 0.0 0.0 0.0 0.0
0.0 0.0 0.0 0.0 0.0 0.0 0.0 0.0
0.0 0.0 0.0 0.0 0.0 0.0 0.0 0.0
0.0 0.0 0.0 0.0 0.0 0.0 0.0 0.0
0.0 0.0 0.0 0.0 0.0 0.0 0.0 0.0
0.0 0.0 0.0 0.0

gru_initial_h f4 [1, 1, 30]
00000000: 0000 0000 0000 0000 0000 0000 0000 0000
00000010: 0000 0000 0000 0000 0000 0000 0000 0000
00000020: 0000 0000 0000 0000 0000 0000 0000 0000
00000030: 0000 0000 0000 0000 0000 0000 0000 0000
00000040: 0000 0000 0000 0000 0000 0000 0000 0000
00000050: 0000 0000 0000 0000 0000 0000 0000 0000
00000060: 0000 0000 0000 0000 0000 0000 0000 0000
00000070: 0000 0000 0000 0000
0.0 0.0 0.0 0.0 0.0 0.0 0.0 0.0
0.0 0.0 0.0 0.0 0.0 0.0 0.0 0.0
0.0 0.0 0.0 0.0 0.0 0.0 0.0 0.0
0.0 0.0 0.0 0.0 0.0 0.0

fc_MatMul_W f4 [30, 10]
00000000: 68d0 df3e 9307 51bf 61b1 5b3f dde2 e9be
00000010: 33e3 7bbf 1572 68be af0f 1b3f 7a70 083f
00000020: 8d47 7c3f bce4 a0bf 7935 773f dc45 783f
00000030: 54f2 07be e8ce 6ebf 3bed 16bf 7d7a 3cbf
00000040: be72 8f3f 259f 42be edbc 6e3f 8b74 44bf
00000050: ac54 d8bd cfba 7a3f a32a 61bf d1b5 2dbf
00000060: 41b3 343f d735 9a3e e52c 0cbe 6df6 563f
00000070: 7e38 97bf 3040 2c3f 8bf6 4fbf e093 013e
00000080: 39d7 373e a937 1c3f 2fc3 6fbf 37c5 7e3f
00000090: b933 90bf b316 a4bf 16f2 7cbd 0890 863f
000000a0: dbc9 70be 9d64 7f3f e2c8 2ebf 1034 683f
000000b0: 9a60 83bf 3e0a 81be 82eb 2bbf d126 3c3f
000000c0: 2702 69bf a875 9a3f 8a38 ccbe b811 e73e
000000d0: 6111 9cbf 76b5 0cbf 63cb 133f c55a edbe
000000e0: 2759 1d3f a9a5 7c3f 10c8 e93e 7ad6 e53d
000000f0: d717 c2be 00c9 863e 4da3 a63f 4cd0 38bf
00000100: 811c 02bf 7b15 80bf 4e0b 47bf 3fc4 f03d
00000110: 68b8 df3e 0bf8 083f d6cc 0e3e 7a5a a4be
00000120: 27e4 52be b04f 593f f8a3 c93f 82d8 d9be
00000130: 826e eb3e 7cb2 a43e 9387 56bf 61c1 b7bf
00000140: 3d83 23bf d2b5 5f3e b84c 19bf d832 0c3f
00000150: 9629 653f b37b a1bf 2757 e83e 22d9 8dbf
00000160: 4bc1 8f3f 10de da3e b1b2 04bf 29c1 66be
00000170: 36bf 23bf f483 5f3f e9f4 a8be 50b4 8c3d
00000180: e1f3 52bf 46d0 00bf c67b 9c3f afb5 b4bc
00000190: 1998 39bf 07ad 96bd 2866 8a3f 7342 c0be
000001a0: 424d ff3e cf22 98bf a66b 4abf b68e d93e
000001b0: 6122 613f c253 383e 8444 a6bf e48a fcbe
000001c0: 73cc 4fbe ab33 553f 13f3 7dbf a463 6f3f
000001d0: 8bef a73d 3b12 76be c6f2 593f c31e 5fbf
000001e0: 2f51 2dbf c76b 963f 9f1a b03e f51e 41bf
000001f0: 6a04 1ebf 33bf 913f 3bf5 863f c83f 183f
00000200: ea04 90bf e9c6 40bd 4cbe 443e a62d f0be
00000210: b33d 3abf 7849 f3be 9d43 143f 43c2 493f
00000220: 399b 0dbf 54a5 e9be 7938 ce3e 3e11 cf3d
00000230: ad49 1a3f d59b aebe a326 1f3f f458 973e
00000240: 1b4c 653f 4346 15bf 48d0 bcbd 3f03 8abf
00000250: 4137 573e 10d6 283b 06b1 183e 5de9 4fbf
00000260: a942 b33f fded 39be 1e2e b53e d6d8 43bf
00000270: 3a3e 443f 75fc e73d d8b7 01bf 5efc 01bd
00000280: b25b 26bf 98bb 4abf b021 543f a157 c7be
00000290: 23d7 293f 5aa0 36bf d230 5bbe 5f2a 8a3f
000002a0: e21f dfbe 4bbe f73e f21b 033f 4aa5 773f
000002b0: dfba 0b3f de87 2f3f f4e2 0ebf e1c9 6bbf
000002c0: b5ee 52bf b962 d73e fd30 48be 4840 43bf
000002d0: 28a2 7cbf b4be 643f c781 01bf 5063 47bf
000002e0: 701b 2a3f ff08 513f 9a54 9e3f 947a 4cbf
000002f0: 73a0 c53d 56bc 00bf 9da8 12bf 9b9a af3f
00000300: fdcb 733f a731 84bf 02b4 793f 4531 a4bf
00000310: 8a7f 8dbe c89b 9dbf 283d 043e 2c47 7f3f
00000320: 11dd 8abf 2367 7e3f 56c8 303f 4215 bd3e
00000330: 41f1 023f 9ce0 3e3f 9d04 aebf cb19 0ebf
00000340: 591d ab3d 436b 37bf 56eb 19bf c288 3cbf
00000350: f79f afbe 15a4 843f eeac 57bf 16aa 703d
00000360: 86da 56bf e0cc 723e 6a72 e8be 4b8e 9c3f
00000370: 79c8 c7be d743 7cbf d5a3 51bf 29ad ae3e
00000380: 84c0 1e3f ea8f c3be bbc8 40bf 1965 ad3f
00000390: 3917 523e 8478 063f 6266 943f 7688 7ebf
000003a0: e630 43bf dcf8 e3bd be31 a8be f57e 0c3f
000003b0: f7fc 1f3f 30eb 673e 5cff 053f a0d6 113f
000003c0: 4ab3 563f 2927 c53e c3aa a3be d24d 9fbe
000003d0: 3741 0f3f 4775 413f c33a 5cbe 3540 02bf
000003e0: e5cf a7bf d6ae 7c3f 1f74 1fbf 7f48 393d
000003f0: c725 253f 22a8 b63f 7d76 74bf 628d c3be
0.4371369 -0.8165218 0.85817534 -0.45680895 -0.98393553 -0.22699769 0.60570806 0.53296626
0.9854668 -1.2569804 0.9656597 0.96981597 -0.13276035 -0.93284464 -0.58955735 -0.736244
1.1206892 -0.19006021 0.9325703 -0.7674033 -0.10563025 0.979413 -0.87955683 -0.67855555
0.7058602 0.30119202 -0.13689001 0.83969766 -1.1814115 0.6728544 -0.8123557 0.12654066
0.17953195 0.6102243 -0.936572 0.99519676 -1.1265785 -1.2819427 -0.06175431 1.0512705
-0.23514502 0.997629 -0.6827527 0.9070444 -1.0263855 -0.25203127 -0.6715623 0.7349673
-0.9101891 1.2067156 -0.39886886 0.45130706 -1.2192804 -0.5496439 0.5773222 -0.46358314
0.6146416 0.9869028 0.45660448 0.11222549 -0.37908813 0.26325226 1.3018585 -0.72192836
-0.50824744 -1.0006555 -0.77751625 0.11756181 0.43695378 0.53503484 0.13945326 -0.32100278
-0.20594846 0.8488722 1.5753164 -0.42547995 0.45982748 0.32167423 -0.8380062 -1.435589
-0.6387213 0.21846703 -0.5988269 0.5476508 0.8951658 -1.2615875 0.45378992 -1.1081889
1.1230863 0.42747545 -0.5183516 -0.22534622 -0.6396364 0.8731072 -0.32999352 0.068703294
-0.8240338 -0.503178 1.2225273 -0.02205929 -0.7249771 -0.07357221 1.0812426 -0.37550697
0.4986363 -1.1885623 -0.7907051 0.42491692 0.87943083 0.18000701 -1.2989659 -0.49324715
-0.20292835 0.83281964 -0.99199027 0.93511415 0.08199986 -0.24030392 0.8513607 -0.87156314
-0.67702 1.1751641 0.3439531 -0.7543786 -0.61725485 1.1386474 1.0543588 0.5947232
-1.12515 -0.047064696 0.19213217 -0.46909827 -0.72750396 -0.4751699 0.5791567 0.78812045
-0.55314976 -0.45633948 0.4027746 0.101107106 0.6026867 -0.34103265 0.6216833 0.29560053
0.8956925 -0.58310336 -0.09219414 -1.0782241 0.21017171 0.0025762357 0.14911279 -0.8121546
1.4004718 -0.18157192 0.35386747 -0.7650274 0.7665745 0.11327449 -0.5067115 -0.031734817
-0.64983666 -0.79192495 0.82863903 -0.38934043 0.663439 -0.7133843 -0.21405342 1.0794181
-0.43579012 0.4838737 0.51214516 0.96736586 0.5458202 0.6856669 -0.55815053 -0.9210492
-0.8239549 0.42067507 -0.19549938 -0.7626996 -0.9868493 0.8935349 -0.5058865 -0.77885914
0.66448116 0.8165435 1.2369568 -0.7987454 0.09649744 -0.5028738 -0.57288533 1.3719057
0.95233136 -1.0327653 0.97540295 -1.2827536 -0.27636367 -1.2313166 0.12913954 0.99717975
-1.0848714 0.99376124 0.6905569 0.3693028 0.51149374 0.74561477 -1.3595158 -0.55508107
0.08355207 -0.71648043 -0.6012472 -0.73646176 -0.3430173 1.0362574 -0.84248245 0.058755957
-0.8392719 0.23710966 -0.4539979 1.2230924 -0.39020136 -0.98541015 -0.8189061 0.34116486
0.62012506 -0.38195735 -0.7530629 1.3546478 0.20516671 0.5252764 1.1593745 -0.9942697
-0.7624649 -0.111314505 -0.3285045 0.5488122 0.6249537 0.2264831 0.5234277 0.56968117
0.83867323 0.3850644 -0.31966218 -0.3111406 0.55958885 0.75569576 -0.21506791 -0.5087922
-1.3110319 0.9870428 -0.6228656 0.045235153 0.6451077 1.427006 -0.954933 -0.38193804

fc_Add_B f4 [10]
00000000: 8644 92be 8708 f43d f2a0 cd3e 6a4c 0a3d
00000010: 34a7 25bd 4202 3f3e 89a4 66be 4aa6 913e
00000020: 5901 9fbe 23b9 5abe
-0.28567904 0.11915689 0.40161854 0.03376428 -0.04044266 0.18653205 -0.22523703 0.2844718
-0.31055716 -0.21359687
